…
parameter name  head.0.bias  requires_gradient  True size torch.Size([8192])
parameter name  head.2.weight  requires_gradient  True size torch.Size([8192, 8192])
parameter name  head.2.bias  requires_gradient  True size torch.Size([8192])
parameter name  head.5.weight  requires_gradient  True size torch.Size([4096, 8192])
parameter name  head.5.bias  requires_gradient  True size torch.Size([4096])
total_params before FSDP tensor(26280529929) params_per_gpu tensor(1037701129)
total_params after FSDP FullyShardedDataParallel(
  (_fsdp_wrapped_module): ClimaX(
    (token_embeds): ModuleList(
      (0-255): 256 x PatchEmbed(
        (proj): Conv2d(1, 8192, kernel_size=(4, 4), stride=(4, 4))
        (norm): Identity()
      )
    )
    (var_agg): FullyShardedDataParallel(
      (_fsdp_wrapped_module): CheckpointWrapper(
        (_checkpoint_wrapped_module): VariableMapping_Attention(
          (q): Linear(in_features=8192, out_features=256, bias=False)
          (kv): Linear(in_features=8192, out_features=512, bias=False)
          (attn_drop): Dropout(p=0.0, inplace=False)
          (proj): Linear(in_features=256, out_features=8192, bias=True)
          (proj_drop): Dropout(p=0.0, inplace=False)
        )
      )
    )
    (var_linear_per_rank): Linear(in_features=8, out_features=1, bias=True)
    (lead_time_embed): Linear(in_features=1, out_features=8192, bias=True)
    (pos_drop): Dropout(p=0.1, inplace=False)
    (blocks): ModuleList(
      (0-31): 32 x FullyShardedDataParallel(
        (_fsdp_wrapped_module): CheckpointWrapper(
          (_checkpoint_wrapped_module): Block(
            (norm1): LayerNorm((8192,), eps=1e-05, elementwise_affine=True)
            (attn): Attention(
              (qkv): Linear(in_features=8192, out_features=768, bias=True)
              (attn_drop): Dropout(p=0.0, inplace=False)
              (proj): Linear(in_features=256, out_features=8192, bias=True)
              (proj_drop): Dropout(p=0.1, inplace=False)
            )
            (ls1): Identity()
            (norm2): LayerNorm((8192,), eps=1e-05, elementwise_affine=True)
            (mlp): Mlp(
              (fc1): Linear(in_features=8192, out_features=1024, bias=True)
              (act): GELU(approximate='none')
              (drop1): Dropout(p=0.1, inplace=False)
              (fc2): Linear(in_features=1024, out_features=8192, bias=True)
            )
            (ls2): Identity()
          )
        )
      )
    )
    (norm): LayerNorm((8192,), eps=1e-05, elementwise_affine=True)
    (head): Sequential(
      (0): Linear(in_features=8192, out_features=8192, bias=True)
      (1): GELU(approximate='none')
      (2): Linear(in_features=8192, out_features=8192, bias=True)
      (3): GELU(approximate='none')
      (4): Pred_Rearrange()
      (5): Linear(in_features=8192, out_features=4096, bias=True)
    )
  )
)
len(dict_root_dirs) 1
use_ddstore is : 0
len(dict_root_dirs) 1
use_ddstore is : 0
len(dict_root_dirs) 1
use_ddstore is : 0
len(dict_root_dirs) 1
use_ddstore is : 0
len(dict_root_dirs) 1
use_ddstore is : 0
len(dict_root_dirs) 1
use_ddstore is : 0
len(dict_root_dirs) 1
use_ddstore is : 0
len(dict_root_dirs) 1
use_ddstore is : 0
len(dict_root_dirs) 1
…
parameter name  head.0.bias  requires_gradient  True size torch.Size([8192])
parameter name  head.2.weight  requires_gradient  True size torch.Size([8192, 8192])
parameter name  head.2.bias  requires_gradient  True size torch.Size([8192])
parameter name  head.5.weight  requires_gradient  True size torch.Size([8192, 8192])
parameter name  head.5.bias  requires_gradient  True size torch.Size([8192])
total_params before FSDP tensor(26351837201) params_per_gpu tensor(1109008401)
total_params after FSDP FullyShardedDataParallel(
  (_fsdp_wrapped_module): ClimaX(
    (token_embeds): ModuleList(
      (0-511): 512 x PatchEmbed(
        (proj): Conv2d(1, 8192, kernel_size=(4, 4), stride=(4, 4))
        (norm): Identity()
      )
    )
    (var_agg): FullyShardedDataParallel(
      (_fsdp_wrapped_module): CheckpointWrapper(
        (_checkpoint_wrapped_module): VariableMapping_Attention(
          (q): Linear(in_features=8192, out_features=256, bias=False)
          (kv): Linear(in_features=8192, out_features=512, bias=False)
          (attn_drop): Dropout(p=0.0, inplace=False)
          (proj): Linear(in_features=256, out_features=8192, bias=True)
          (proj_drop): Dropout(p=0.0, inplace=False)
        )
      )
    )
    (var_linear_per_rank): Linear(in_features=16, out_features=1, bias=True)
    (lead_time_embed): Linear(in_features=1, out_features=8192, bias=True)
    (pos_drop): Dropout(p=0.1, inplace=False)
    (blocks): ModuleList(
      (0-31): 32 x FullyShardedDataParallel(
        (_fsdp_wrapped_module): CheckpointWrapper(
          (_checkpoint_wrapped_module): Block(
            (norm1): LayerNorm((8192,), eps=1e-05, elementwise_affine=True)
            (attn): Attention(
              (qkv): Linear(in_features=8192, out_features=768, bias=True)
              (attn_drop): Dropout(p=0.0, inplace=False)
              (proj): Linear(in_features=256, out_features=8192, bias=True)
              (proj_drop): Dropout(p=0.1, inplace=False)
            )
            (ls1): Identity()
            (norm2): LayerNorm((8192,), eps=1e-05, elementwise_affine=True)
            (mlp): Mlp(
              (fc1): Linear(in_features=8192, out_features=1024, bias=True)
              (act): GELU(approximate='none')
              (drop1): Dropout(p=0.1, inplace=False)
              (fc2): Linear(in_features=1024, out_features=8192, bias=True)
            )
            (ls2): Identity()
          )
        )
      )
    )
    (norm): LayerNorm((8192,), eps=1e-05, elementwise_affine=True)
    (head): Sequential(
      (0): Linear(in_features=8192, out_features=8192, bias=True)
      (1): GELU(approximate='none')
      (2): Linear(in_features=8192, out_features=8192, bias=True)
      (3): GELU(approximate='none')
      (4): Pred_Rearrange()
      (5): Linear(in_features=8192, out_features=8192, bias=True)
    )
  )
)
len(dict_root_dirs) 1
use_ddstore is : 0
len(dict_root_dirs) 1
use_ddstore is : 0
len(dict_root_dirs) 1
use_ddstore is : 0
len(dict_root_dirs) 1
use_ddstore is : 0
len(dict_root_dirs) 1
use_ddstore is : 0
len(dict_root_dirs) 1
use_ddstore is : 0
len(dict_root_dirs) 1
use_ddstore is : 0
len(dict_root_dirs) 1
use_ddstore is : 0
len(dict_root_dirs) 1
…
len(dict_root_dirs) 1
use_ddstore is : 0
len(dict_root_dirs) 1
use_ddstore is : 0
len(dict_root_dirs) 1
use_ddstore is : 0
len(dict_root_dirs) 1
use_ddstore is : 0
len(dict_root_dirs) 1
use_ddstore is : 0
len(dict_root_dirs) 1
use_ddstore is : 0
len(dict_root_dirs) 1
use_ddstore is : 0
len(dict_root_dirs) 1
use_ddstore is : 0
len(dict_root_dirs) 1
use_ddstore is : 0
len(dict_root_dirs) 1
use_ddstore is : 0
len(dict_root_dirs) 1
use_ddstore is : 0
total_params after FSDP FullyShardedDataParallel(
  (_fsdp_wrapped_module): ClimaX(
    (token_embeds): ModuleList(
      (0-767): 768 x PatchEmbed(
        (proj): Conv2d(1, 8192, kernel_size=(4, 4), stride=(4, 4))
        (norm): Identity()
      )
    )
    (var_agg): FullyShardedDataParallel(
      (_fsdp_wrapped_module): CheckpointWrapper(
        (_checkpoint_wrapped_module): VariableMapping_Attention(
          (q): Linear(in_features=8192, out_features=256, bias=False)
          (kv): Linear(in_features=8192, out_features=512, bias=False)
          (attn_drop): Dropout(p=0.0, inplace=False)
          (proj): Linear(in_features=256, out_features=8192, bias=True)
          (proj_drop): Dropout(p=0.0, inplace=False)
        )
      )
    )
    (var_linear_per_rank): Linear(in_features=24, out_features=1, bias=True)
    (lead_time_embed): Linear(in_features=1, out_features=8192, bias=True)
    (pos_drop): Dropout(p=0.1, inplace=False)
    (blocks): ModuleList(
      (0-31): 32 x FullyShardedDataParallel(
        (_fsdp_wrapped_module): CheckpointWrapper(
          (_checkpoint_wrapped_module): Block(
            (norm1): LayerNorm((8192,), eps=1e-05, elementwise_affine=True)
            (attn): Attention(
              (qkv): Linear(in_features=8192, out_features=768, bias=True)
              (attn_drop): Dropout(p=0.0, inplace=False)
              (proj): Linear(in_features=256, out_features=8192, bias=True)
              (proj_drop): Dropout(p=0.1, inplace=False)
            )
            (ls1): Identity()
            (norm2): LayerNorm((8192,), eps=1e-05, elementwise_affine=True)
            (mlp): Mlp(
              (fc1): Linear(in_features=8192, out_features=1024, bias=True)
              (act): GELU(approximate='none')
              (drop1): Dropout(p=0.1, inplace=False)
              (fc2): Linear(in_features=1024, out_features=8192, bias=True)
            )
            (ls2): Identity()
          )
        )
      )
    )
    (norm): LayerNorm((8192,), eps=1e-05, elementwise_affine=True)
    (head): Sequential(
      (0): Linear(in_features=8192, out_features=8192, bias=True)
      (1): GELU(approximate='none')
      (2): Linear(in_features=8192, out_features=8192, bias=True)
      (3): GELU(approximate='none')
      (4): Pred_Rearrange()
      (5): Linear(in_features=8192, out_features=12288, bias=True)
    )
  )
)
len(dict_root_dirs) 1
use_ddstore is : 0
len(dict_root_dirs) 1
use_ddstore is : 0
len(dict_root_dirs) 1
use_ddstore is : 0
len(dict_root_dirs) 1
use_ddstore is : 0
len(dict_root_dirs) 1
use_ddstore is : 0
len(dict_root_dirs) 1
use_ddstore is : 0
len(dict_root_dirs) 1
use_ddstore is : 0
len(dict_root_dirs) 1
use_ddstore is : 0
len(dict_root_dirs) 1
…
parameter name  head.0.bias  requires_gradient  True size torch.Size([8192])
parameter name  head.2.weight  requires_gradient  True size torch.Size([8192, 8192])
parameter name  head.2.bias  requires_gradient  True size torch.Size([8192])
parameter name  head.5.weight  requires_gradient  True size torch.Size([4096, 8192])
parameter name  head.5.bias  requires_gradient  True size torch.Size([4096])
total_params before FSDP tensor(34870726656) params_per_gpu tensor(1306144768)
total_params after FSDP FullyShardedDataParallel(
  (_fsdp_wrapped_module): ClimaX(
    (token_embeds): ModuleList(
      (0-255): 256 x PatchEmbed(
        (proj): Conv2d(1, 8192, kernel_size=(4, 4), stride=(4, 4))
        (norm): Identity()
      )
    )
    (var_agg): FullyShardedDataParallel(
      (_fsdp_wrapped_module): CheckpointWrapper(
        (_checkpoint_wrapped_module): VariableMapping_Attention(
          (q): Linear(in_features=8192, out_features=256, bias=False)
          (kv): Linear(in_features=8192, out_features=512, bias=False)
          (attn_drop): Dropout(p=0.0, inplace=False)
          (proj): Linear(in_features=256, out_features=8192, bias=True)
          (proj_drop): Dropout(p=0.0, inplace=False)
        )
      )
    )
    (var_agg_per_rank): CustomCrossAttention(
      (q): Linear(in_features=8192, out_features=8192, bias=False)
      (kv): Linear(in_features=8192, out_features=16384, bias=False)
      (attn_drop): Dropout(p=0.0, inplace=False)
      (proj): Linear(in_features=8192, out_features=8192, bias=True)
      (proj_drop): Dropout(p=0.0, inplace=False)
    )
    (lead_time_embed): Linear(in_features=1, out_features=8192, bias=True)
    (pos_drop): Dropout(p=0.1, inplace=False)
    (blocks): ModuleList(
      (0-31): 32 x FullyShardedDataParallel(
        (_fsdp_wrapped_module): CheckpointWrapper(
          (_checkpoint_wrapped_module): Block(
            (norm1): LayerNorm((8192,), eps=1e-05, elementwise_affine=True)
            (attn): Attention(
              (qkv): Linear(in_features=8192, out_features=768, bias=True)
              (attn_drop): Dropout(p=0.0, inplace=False)
              (proj): Linear(in_features=256, out_features=8192, bias=True)
              (proj_drop): Dropout(p=0.1, inplace=False)
            )
            (ls1): Identity()
            (norm2): LayerNorm((8192,), eps=1e-05, elementwise_affine=True)
            (mlp): Mlp(
              (fc1): Linear(in_features=8192, out_features=1024, bias=True)
              (act): GELU(approximate='none')
              (drop1): Dropout(p=0.1, inplace=False)
              (fc2): Linear(in_features=1024, out_features=8192, bias=True)
            )
            (ls2): Identity()
          )
        )
      )
    )
    (norm): LayerNorm((8192,), eps=1e-05, elementwise_affine=True)
    (head): Sequential(
      (0): Linear(in_features=8192, out_features=8192, bias=True)
      (1): GELU(approximate='none')
      (2): Linear(in_features=8192, out_features=8192, bias=True)
      (3): GELU(approximate='none')
      (4): Pred_Rearrange()
      (5): Linear(in_features=8192, out_features=4096, bias=True)
    )
  )
)
len(dict_root_dirs) 1
use_ddstore is : 0
len(dict_root_dirs) 1
use_ddstore is : 0
len(dict_root_dirs) 1
use_ddstore is : 0
len(dict_root_dirs) 1
use_ddstore is : 0
len(dict_root_dirs) 1
use_ddstore is : 0
len(dict_root_dirs) 1
use_ddstore is : 0
len(dict_root_dirs) 1
use_ddstore is : 0
len(dict_root_dirs) 1
use_ddstore is : 0
len(dict_root_dirs) 1
…
parameter name  head.0.bias  requires_gradient  True size torch.Size([8192])
parameter name  head.2.weight  requires_gradient  True size torch.Size([8192, 8192])
parameter name  head.2.bias  requires_gradient  True size torch.Size([8192])
parameter name  head.5.weight  requires_gradient  True size torch.Size([8192, 8192])
parameter name  head.5.bias  requires_gradient  True size torch.Size([8192])
total_params before FSDP tensor(34942033920) params_per_gpu tensor(1377452032)
total_params after FSDP FullyShardedDataParallel(
  (_fsdp_wrapped_module): ClimaX(
    (token_embeds): ModuleList(
      (0-511): 512 x PatchEmbed(
        (proj): Conv2d(1, 8192, kernel_size=(4, 4), stride=(4, 4))
        (norm): Identity()
      )
    )
    (var_agg): FullyShardedDataParallel(
      (_fsdp_wrapped_module): CheckpointWrapper(
        (_checkpoint_wrapped_module): VariableMapping_Attention(
          (q): Linear(in_features=8192, out_features=256, bias=False)
          (kv): Linear(in_features=8192, out_features=512, bias=False)
          (attn_drop): Dropout(p=0.0, inplace=False)
          (proj): Linear(in_features=256, out_features=8192, bias=True)
          (proj_drop): Dropout(p=0.0, inplace=False)
        )
      )
    )
    (var_agg_per_rank): CustomCrossAttention(
      (q): Linear(in_features=8192, out_features=8192, bias=False)
      (kv): Linear(in_features=8192, out_features=16384, bias=False)
      (attn_drop): Dropout(p=0.0, inplace=False)
      (proj): Linear(in_features=8192, out_features=8192, bias=True)
      (proj_drop): Dropout(p=0.0, inplace=False)
    )
    (lead_time_embed): Linear(in_features=1, out_features=8192, bias=True)
    (pos_drop): Dropout(p=0.1, inplace=False)
    (blocks): ModuleList(
      (0-31): 32 x FullyShardedDataParallel(
        (_fsdp_wrapped_module): CheckpointWrapper(
          (_checkpoint_wrapped_module): Block(
            (norm1): LayerNorm((8192,), eps=1e-05, elementwise_affine=True)
            (attn): Attention(
              (qkv): Linear(in_features=8192, out_features=768, bias=True)
              (attn_drop): Dropout(p=0.0, inplace=False)
              (proj): Linear(in_features=256, out_features=8192, bias=True)
              (proj_drop): Dropout(p=0.1, inplace=False)
            )
            (ls1): Identity()
            (norm2): LayerNorm((8192,), eps=1e-05, elementwise_affine=True)
            (mlp): Mlp(
              (fc1): Linear(in_features=8192, out_features=1024, bias=True)
              (act): GELU(approximate='none')
              (drop1): Dropout(p=0.1, inplace=False)
              (fc2): Linear(in_features=1024, out_features=8192, bias=True)
            )
            (ls2): Identity()
          )
        )
      )
    )
    (norm): LayerNorm((8192,), eps=1e-05, elementwise_affine=True)
    (head): Sequential(
      (0): Linear(in_features=8192, out_features=8192, bias=True)
      (1): GELU(approximate='none')
      (2): Linear(in_features=8192, out_features=8192, bias=True)
      (3): GELU(approximate='none')
      (4): Pred_Rearrange()
      (5): Linear(in_features=8192, out_features=8192, bias=True)
    )
  )
)
len(dict_root_dirs) 1
use_ddstore is : 0
len(dict_root_dirs) 1
use_ddstore is : 0
len(dict_root_dirs) 1
use_ddstore is : 0
len(dict_root_dirs) 1
use_ddstore is : 0
len(dict_root_dirs) 1
use_ddstore is : 0
len(dict_root_dirs) 1
use_ddstore is : 0
len(dict_root_dirs) 1
use_ddstore is : 0
len(dict_root_dirs) 1
use_ddstore is : 0
len(dict_root_dirs) 1
…
parameter name  head.0.bias  requires_gradient  True size torch.Size([8192])
parameter name  head.2.weight  requires_gradient  True size torch.Size([8192, 8192])
parameter name  head.2.bias  requires_gradient  True size torch.Size([8192])
parameter name  head.5.weight  requires_gradient  True size torch.Size([12288, 8192])
parameter name  head.5.bias  requires_gradient  True size torch.Size([12288])
total_params before FSDP tensor(35013341184) params_per_gpu tensor(1448759296)
total_params after FSDP FullyShardedDataParallel(
  (_fsdp_wrapped_module): ClimaX(
    (token_embeds): ModuleList(
      (0-767): 768 x PatchEmbed(
        (proj): Conv2d(1, 8192, kernel_size=(4, 4), stride=(4, 4))
        (norm): Identity()
      )
    )
    (var_agg): FullyShardedDataParallel(
      (_fsdp_wrapped_module): CheckpointWrapper(
        (_checkpoint_wrapped_module): VariableMapping_Attention(
          (q): Linear(in_features=8192, out_features=256, bias=False)
          (kv): Linear(in_features=8192, out_features=512, bias=False)
          (attn_drop): Dropout(p=0.0, inplace=False)
          (proj): Linear(in_features=256, out_features=8192, bias=True)
          (proj_drop): Dropout(p=0.0, inplace=False)
        )
      )
    )
    (var_agg_per_rank): CustomCrossAttention(
      (q): Linear(in_features=8192, out_features=8192, bias=False)
      (kv): Linear(in_features=8192, out_features=16384, bias=False)
      (attn_drop): Dropout(p=0.0, inplace=False)
      (proj): Linear(in_features=8192, out_features=8192, bias=True)
      (proj_drop): Dropout(p=0.0, inplace=False)
    )
    (lead_time_embed): Linear(in_features=1, out_features=8192, bias=True)
    (pos_drop): Dropout(p=0.1, inplace=False)
    (blocks): ModuleList(
      (0-31): 32 x FullyShardedDataParallel(
        (_fsdp_wrapped_module): CheckpointWrapper(
          (_checkpoint_wrapped_module): Block(
            (norm1): LayerNorm((8192,), eps=1e-05, elementwise_affine=True)
            (attn): Attention(
              (qkv): Linear(in_features=8192, out_features=768, bias=True)
              (attn_drop): Dropout(p=0.0, inplace=False)
              (proj): Linear(in_features=256, out_features=8192, bias=True)
              (proj_drop): Dropout(p=0.1, inplace=False)
            )
            (ls1): Identity()
            (norm2): LayerNorm((8192,), eps=1e-05, elementwise_affine=True)
            (mlp): Mlp(
              (fc1): Linear(in_features=8192, out_features=1024, bias=True)
              (act): GELU(approximate='none')
              (drop1): Dropout(p=0.1, inplace=False)
              (fc2): Linear(in_features=1024, out_features=8192, bias=True)
            )
            (ls2): Identity()
          )
        )
      )
    )
    (norm): LayerNorm((8192,), eps=1e-05, elementwise_affine=True)
    (head): Sequential(
      (0): Linear(in_features=8192, out_features=8192, bias=True)
      (1): GELU(approximate='none')
      (2): Linear(in_features=8192, out_features=8192, bias=True)
      (3): GELU(approximate='none')
      (4): Pred_Rearrange()
      (5): Linear(in_features=8192, out_features=12288, bias=True)
    )
  )
)
len(dict_root_dirs) 1
use_ddstore is : 0
len(dict_root_dirs) 1
use_ddstore is : 0
len(dict_root_dirs) 1
use_ddstore is : 0
len(dict_root_dirs) 1
use_ddstore is : 0
len(dict_root_dirs) 1
use_ddstore is : 0
len(dict_root_dirs) 1
use_ddstore is : 0
len(dict_root_dirs) 1
use_ddstore is : 0
len(dict_root_dirs) 1
use_ddstore is : 0
len(dict_root_dirs) 1
…
parameter name  head.0.bias  requires_gradient  True size torch.Size([8192])
parameter name  head.2.weight  requires_gradient  True size torch.Size([8192, 8192])
parameter name  head.2.bias  requires_gradient  True size torch.Size([8192])
parameter name  head.5.weight  requires_gradient  True size torch.Size([4096, 8192])
parameter name  head.5.bias  requires_gradient  True size torch.Size([4096])
total_params before FSDP tensor(26280521728) params_per_gpu tensor(1037692928)
total_params after FSDP FullyShardedDataParallel(
  (_fsdp_wrapped_module): ClimaX(
    (token_embeds): ModuleList(
      (0-255): 256 x PatchEmbed(
        (proj): Conv2d(1, 8192, kernel_size=(4, 4), stride=(4, 4))
        (norm): Identity()
      )
    )
    (var_agg): FullyShardedDataParallel(
      (_fsdp_wrapped_module): CheckpointWrapper(
        (_checkpoint_wrapped_module): VariableMapping_Attention(
          (q): Linear(in_features=8192, out_features=256, bias=False)
          (kv): Linear(in_features=8192, out_features=512, bias=False)
          (attn_drop): Dropout(p=0.0, inplace=False)
          (proj): Linear(in_features=256, out_features=8192, bias=True)
          (proj_drop): Dropout(p=0.0, inplace=False)
        )
      )
    )
    (lead_time_embed): Linear(in_features=1, out_features=8192, bias=True)
    (pos_drop): Dropout(p=0.1, inplace=False)
    (blocks): ModuleList(
      (0-31): 32 x FullyShardedDataParallel(
        (_fsdp_wrapped_module): CheckpointWrapper(
          (_checkpoint_wrapped_module): Block(
            (norm1): LayerNorm((8192,), eps=1e-05, elementwise_affine=True)
            (attn): Attention(
              (qkv): Linear(in_features=8192, out_features=768, bias=True)
              (attn_drop): Dropout(p=0.0, inplace=False)
              (proj): Linear(in_features=256, out_features=8192, bias=True)
              (proj_drop): Dropout(p=0.1, inplace=False)
            )
            (ls1): Identity()
            (norm2): LayerNorm((8192,), eps=1e-05, elementwise_affine=True)
            (mlp): Mlp(
              (fc1): Linear(in_features=8192, out_features=1024, bias=True)
              (act): GELU(approximate='none')
              (drop1): Dropout(p=0.1, inplace=False)
              (fc2): Linear(in_features=1024, out_features=8192, bias=True)
            )
            (ls2): Identity()
          )
        )
      )
    )
    (norm): LayerNorm((8192,), eps=1e-05, elementwise_affine=True)
    (head): Sequential(
      (0): Linear(in_features=8192, out_features=8192, bias=True)
      (1): GELU(approximate='none')
      (2): Linear(in_features=8192, out_features=8192, bias=True)
      (3): GELU(approximate='none')
      (4): Pred_Rearrange()
      (5): Linear(in_features=8192, out_features=4096, bias=True)
    )
  )
)
len(dict_root_dirs) 1
use_ddstore is : 0
len(dict_root_dirs) 1
use_ddstore is : 0
len(dict_root_dirs) 1
use_ddstore is : 0
len(dict_root_dirs) 1
use_ddstore is : 0
len(dict_root_dirs) 1
use_ddstore is : 0
len(dict_root_dirs) 1
use_ddstore is : 0
len(dict_root_dirs) 1
use_ddstore is : 0
len(dict_root_dirs) 1
use_ddstore is : 0
len(dict_root_dirs) 1
…
/lustre/orion/world-shared/stf218/atsaris/DEEPCAM_2022/new_env/miniconda/env_rocm/lib/python3.8/site-packages/torchvision-0.18.0a0+4c0f441-py3.8-linux-x86_64.egg/torchvision/io/image.py:13: UserWarning: Failed to load image Python extension: ''If you don't plan on using image functionality from `torchvision.io`, you can ignore this warning. Otherwise, there might be something wrong with your environment. Did you have `libjpeg` or `libpng` installed before building `torchvision` from source?
  warn(
total_params after FSDP FullyShardedDataParallel(
  (_fsdp_wrapped_module): ClimaX(
    (token_embeds): ModuleList(
      (0-511): 512 x PatchEmbed(
        (proj): Conv2d(1, 8192, kernel_size=(4, 4), stride=(4, 4))
        (norm): Identity()
      )
    )
    (var_agg): FullyShardedDataParallel(
      (_fsdp_wrapped_module): CheckpointWrapper(
        (_checkpoint_wrapped_module): VariableMapping_Attention(
          (q): Linear(in_features=8192, out_features=256, bias=False)
          (kv): Linear(in_features=8192, out_features=512, bias=False)
          (attn_drop): Dropout(p=0.0, inplace=False)
          (proj): Linear(in_features=256, out_features=8192, bias=True)
          (proj_drop): Dropout(p=0.0, inplace=False)
        )
      )
    )
    (lead_time_embed): Linear(in_features=1, out_features=8192, bias=True)
    (pos_drop): Dropout(p=0.1, inplace=False)
    (blocks): ModuleList(
      (0-31): 32 x FullyShardedDataParallel(
        (_fsdp_wrapped_module): CheckpointWrapper(
          (_checkpoint_wrapped_module): Block(
            (norm1): LayerNorm((8192,), eps=1e-05, elementwise_affine=True)
            (attn): Attention(
              (qkv): Linear(in_features=8192, out_features=768, bias=True)
              (attn_drop): Dropout(p=0.0, inplace=False)
              (proj): Linear(in_features=256, out_features=8192, bias=True)
              (proj_drop): Dropout(p=0.1, inplace=False)
            )
            (ls1): Identity()
            (norm2): LayerNorm((8192,), eps=1e-05, elementwise_affine=True)
            (mlp): Mlp(
              (fc1): Linear(in_features=8192, out_features=1024, bias=True)
              (act): GELU(approximate='none')
              (drop1): Dropout(p=0.1, inplace=False)
              (fc2): Linear(in_features=1024, out_features=8192, bias=True)
            )
            (ls2): Identity()
          )
        )
      )
    )
    (norm): LayerNorm((8192,), eps=1e-05, elementwise_affine=True)
    (head): Sequential(
      (0): Linear(in_features=8192, out_features=8192, bias=True)
      (1): GELU(approximate='none')
      (2): Linear(in_features=8192, out_features=8192, bias=True)
      (3): GELU(approximate='none')
      (4): Pred_Rearrange()
      (5): Linear(in_features=8192, out_features=8192, bias=True)
    )
  )
)
/lustre/orion/world-shared/stf218/atsaris/DEEPCAM_2022/new_env/miniconda/env_rocm/lib/python3.8/site-packages/torchvision-0.18.0a0+4c0f441-py3.8-linux-x86_64.egg/torchvision/io/image.py:13: UserWarning: Failed to load image Python extension: ''If you don't plan on using image functionality from `torchvision.io`, you can ignore this warning. Otherwise, there might be something wrong with your environment. Did you have `libjpeg` or `libpng` installed before building `torchvision` from source?
…
parameter name  head.0.bias  requires_gradient  True size torch.Size([8192])
parameter name  head.2.weight  requires_gradient  True size torch.Size([8192, 8192])
parameter name  head.2.bias  requires_gradient  True size torch.Size([8192])
parameter name  head.5.weight  requires_gradient  True size torch.Size([12288, 8192])
parameter name  head.5.bias  requires_gradient  True size torch.Size([12288])
total_params before FSDP tensor(26423136256) params_per_gpu tensor(1180307456)
total_params after FSDP FullyShardedDataParallel(
  (_fsdp_wrapped_module): ClimaX(
    (token_embeds): ModuleList(
      (0-767): 768 x PatchEmbed(
        (proj): Conv2d(1, 8192, kernel_size=(4, 4), stride=(4, 4))
        (norm): Identity()
      )
    )
    (var_agg): FullyShardedDataParallel(
      (_fsdp_wrapped_module): CheckpointWrapper(
        (_checkpoint_wrapped_module): VariableMapping_Attention(
          (q): Linear(in_features=8192, out_features=256, bias=False)
          (kv): Linear(in_features=8192, out_features=512, bias=False)
          (attn_drop): Dropout(p=0.0, inplace=False)
          (proj): Linear(in_features=256, out_features=8192, bias=True)
          (proj_drop): Dropout(p=0.0, inplace=False)
        )
      )
    )
    (lead_time_embed): Linear(in_features=1, out_features=8192, bias=True)
    (pos_drop): Dropout(p=0.1, inplace=False)
    (blocks): ModuleList(
      (0-31): 32 x FullyShardedDataParallel(
        (_fsdp_wrapped_module): CheckpointWrapper(
          (_checkpoint_wrapped_module): Block(
            (norm1): LayerNorm((8192,), eps=1e-05, elementwise_affine=True)
            (attn): Attention(
              (qkv): Linear(in_features=8192, out_features=768, bias=True)
              (attn_drop): Dropout(p=0.0, inplace=False)
              (proj): Linear(in_features=256, out_features=8192, bias=True)
              (proj_drop): Dropout(p=0.1, inplace=False)
            )
            (ls1): Identity()
            (norm2): LayerNorm((8192,), eps=1e-05, elementwise_affine=True)
            (mlp): Mlp(
              (fc1): Linear(in_features=8192, out_features=1024, bias=True)
              (act): GELU(approximate='none')
              (drop1): Dropout(p=0.1, inplace=False)
              (fc2): Linear(in_features=1024, out_features=8192, bias=True)
            )
            (ls2): Identity()
          )
        )
      )
    )
    (norm): LayerNorm((8192,), eps=1e-05, elementwise_affine=True)
    (head): Sequential(
      (0): Linear(in_features=8192, out_features=8192, bias=True)
      (1): GELU(approximate='none')
      (2): Linear(in_features=8192, out_features=8192, bias=True)
      (3): GELU(approximate='none')
      (4): Pred_Rearrange()
      (5): Linear(in_features=8192, out_features=12288, bias=True)
    )
  )
)
len(dict_root_dirs) 1
use_ddstore is : 0
len(dict_root_dirs) 1
use_ddstore is : 0
len(dict_root_dirs) 1
use_ddstore is : 0
len(dict_root_dirs) 1
use_ddstore is : 0
len(dict_root_dirs) 1
use_ddstore is : 0
len(dict_root_dirs) 1
use_ddstore is : 0
len(dict_root_dirs) 1
use_ddstore is : 0
len(dict_root_dirs) 1
use_ddstore is : 0
len(dict_root_dirs) 1
…
