…
parameter name  head.0.bias  requires_gradient  True size torch.Size([8192])
parameter name  head.2.weight  requires_gradient  True size torch.Size([8192, 8192])
parameter name  head.2.bias  requires_gradient  True size torch.Size([8192])
parameter name  head.5.weight  requires_gradient  True size torch.Size([512, 8192])
parameter name  head.5.bias  requires_gradient  True size torch.Size([512])
total_params before FSDP tensor(26209608192) params_per_gpu tensor(1789051392)
total_params after FSDP FullyShardedDataParallel(
  (_fsdp_wrapped_module): ClimaX(
    (token_embeds): ModuleList(
      (0-31): 32 x PatchEmbed(
        (proj): Conv2d(1, 8192, kernel_size=(4, 4), stride=(4, 4))
        (norm): Identity()
      )
    )
    (var_agg): FullyShardedDataParallel(
      (_fsdp_wrapped_module): CheckpointWrapper(
        (_checkpoint_wrapped_module): VariableMapping_Attention(
          (q): Linear(in_features=8192, out_features=512, bias=False)
          (kv): Linear(in_features=8192, out_features=1024, bias=False)
          (attn_drop): Dropout(p=0.0, inplace=False)
          (proj): Linear(in_features=512, out_features=8192, bias=True)
          (proj_drop): Dropout(p=0.0, inplace=False)
        )
      )
    )
    (lead_time_embed): Linear(in_features=1, out_features=8192, bias=True)
    (pos_drop): Dropout(p=0.1, inplace=False)
    (blocks): ModuleList(
      (0-31): 32 x FullyShardedDataParallel(
        (_fsdp_wrapped_module): CheckpointWrapper(
          (_checkpoint_wrapped_module): Block(
            (norm1): LayerNorm((8192,), eps=1e-05, elementwise_affine=True)
            (attn): Attention(
              (qkv): Linear(in_features=8192, out_features=1536, bias=True)
              (attn_drop): Dropout(p=0.0, inplace=False)
              (proj): Linear(in_features=512, out_features=8192, bias=True)
              (proj_drop): Dropout(p=0.1, inplace=False)
            )
            (ls1): Identity()
            (norm2): LayerNorm((8192,), eps=1e-05, elementwise_affine=True)
            (mlp): Mlp(
              (fc1): Linear(in_features=8192, out_features=2048, bias=True)
              (act): GELU(approximate='none')
              (drop1): Dropout(p=0.1, inplace=False)
              (fc2): Linear(in_features=2048, out_features=8192, bias=True)
            )
            (ls2): Identity()
          )
        )
      )
    )
    (norm): LayerNorm((8192,), eps=1e-05, elementwise_affine=True)
    (head): Sequential(
      (0): Linear(in_features=8192, out_features=8192, bias=True)
      (1): GELU(approximate='none')
      (2): Linear(in_features=8192, out_features=8192, bias=True)
      (3): GELU(approximate='none')
      (4): Pred_Rearrange()
      (5): Linear(in_features=8192, out_features=512, bias=True)
    )
  )
)
len(dict_root_dirs) 1
use_ddstore is : 0
len(dict_root_dirs) 1
use_ddstore is : 0
len(dict_root_dirs) 1
use_ddstore is : 0
len(dict_root_dirs) 1
use_ddstore is : 0
len(dict_root_dirs) 1
use_ddstore is : 0
len(dict_root_dirs) 1
use_ddstore is : 0
len(dict_root_dirs) 1
use_ddstore is : 0
len(dict_root_dirs) 1
rank  15 lister_train reset: mpi-esm 9 9 9
…
parameter name  head.0.bias  requires_gradient  True size torch.Size([8192])
parameter name  head.2.weight  requires_gradient  True size torch.Size([8192, 8192])
parameter name  head.2.bias  requires_gradient  True size torch.Size([8192])
parameter name  head.5.weight  requires_gradient  True size torch.Size([1024, 8192])
parameter name  head.5.bias  requires_gradient  True size torch.Size([1024])
total_params before FSDP tensor(26218521600) params_per_gpu tensor(1797964800)
total_params after FSDP FullyShardedDataParallel(
  (_fsdp_wrapped_module): ClimaX(
    (token_embeds): ModuleList(
      (0-63): 64 x PatchEmbed(
        (proj): Conv2d(1, 8192, kernel_size=(4, 4), stride=(4, 4))
        (norm): Identity()
      )
    )
    (var_agg): FullyShardedDataParallel(
      (_fsdp_wrapped_module): CheckpointWrapper(
        (_checkpoint_wrapped_module): VariableMapping_Attention(
          (q): Linear(in_features=8192, out_features=512, bias=False)
          (kv): Linear(in_features=8192, out_features=1024, bias=False)
          (attn_drop): Dropout(p=0.0, inplace=False)
          (proj): Linear(in_features=512, out_features=8192, bias=True)
          (proj_drop): Dropout(p=0.0, inplace=False)
        )
      )
    )
    (lead_time_embed): Linear(in_features=1, out_features=8192, bias=True)
    (pos_drop): Dropout(p=0.1, inplace=False)
    (blocks): ModuleList(
      (0-31): 32 x FullyShardedDataParallel(
        (_fsdp_wrapped_module): CheckpointWrapper(
          (_checkpoint_wrapped_module): Block(
            (norm1): LayerNorm((8192,), eps=1e-05, elementwise_affine=True)
            (attn): Attention(
              (qkv): Linear(in_features=8192, out_features=1536, bias=True)
              (attn_drop): Dropout(p=0.0, inplace=False)
              (proj): Linear(in_features=512, out_features=8192, bias=True)
              (proj_drop): Dropout(p=0.1, inplace=False)
            )
            (ls1): Identity()
            (norm2): LayerNorm((8192,), eps=1e-05, elementwise_affine=True)
            (mlp): Mlp(
              (fc1): Linear(in_features=8192, out_features=2048, bias=True)
              (act): GELU(approximate='none')
              (drop1): Dropout(p=0.1, inplace=False)
              (fc2): Linear(in_features=2048, out_features=8192, bias=True)
            )
            (ls2): Identity()
          )
        )
      )
    )
    (norm): LayerNorm((8192,), eps=1e-05, elementwise_affine=True)
    (head): Sequential(
      (0): Linear(in_features=8192, out_features=8192, bias=True)
      (1): GELU(approximate='none')
      (2): Linear(in_features=8192, out_features=8192, bias=True)
      (3): GELU(approximate='none')
      (4): Pred_Rearrange()
      (5): Linear(in_features=8192, out_features=1024, bias=True)
    )
  )
)
len(dict_root_dirs) 1
use_ddstore is : 0
len(dict_root_dirs) 1
use_ddstore is : 0
len(dict_root_dirs) 1
use_ddstore is : 0
len(dict_root_dirs) 1
use_ddstore is : 0
len(dict_root_dirs) 1
rank  15 lister_train reset: mpi-esm 9 9 9
use_ddstore is : 0
len(dict_root_dirs) 1
use_ddstore is : 0
len(dict_root_dirs) 1
use_ddstore is : 0
len(dict_root_dirs) 1
…
/lustre/orion/world-shared/stf218/atsaris/DEEPCAM_2022/new_env/miniconda/env_rocm/lib/python3.8/site-packages/torchvision-0.18.0a0+4c0f441-py3.8-linux-x86_64.egg/torchvision/io/image.py:13: UserWarning: Failed to load image Python extension: ''If you don't plan on using image functionality from `torchvision.io`, you can ignore this warning. Otherwise, there might be something wrong with your environment. Did you have `libjpeg` or `libpng` installed before building `torchvision` from source?
  warn(
total_params after FSDP FullyShardedDataParallel(
  (_fsdp_wrapped_module): ClimaX(
    (token_embeds): ModuleList(
      (0-127): 128 x PatchEmbed(
        (proj): Conv2d(1, 8192, kernel_size=(4, 4), stride=(4, 4))
        (norm): Identity()
      )
    )
    (var_agg): FullyShardedDataParallel(
      (_fsdp_wrapped_module): CheckpointWrapper(
        (_checkpoint_wrapped_module): VariableMapping_Attention(
          (q): Linear(in_features=8192, out_features=512, bias=False)
          (kv): Linear(in_features=8192, out_features=1024, bias=False)
          (attn_drop): Dropout(p=0.0, inplace=False)
          (proj): Linear(in_features=512, out_features=8192, bias=True)
          (proj_drop): Dropout(p=0.0, inplace=False)
        )
      )
    )
    (lead_time_embed): Linear(in_features=1, out_features=8192, bias=True)
    (pos_drop): Dropout(p=0.1, inplace=False)
    (blocks): ModuleList(
      (0-31): 32 x FullyShardedDataParallel(
        (_fsdp_wrapped_module): CheckpointWrapper(
          (_checkpoint_wrapped_module): Block(
            (norm1): LayerNorm((8192,), eps=1e-05, elementwise_affine=True)
            (attn): Attention(
              (qkv): Linear(in_features=8192, out_features=1536, bias=True)
              (attn_drop): Dropout(p=0.0, inplace=False)
              (proj): Linear(in_features=512, out_features=8192, bias=True)
              (proj_drop): Dropout(p=0.1, inplace=False)
            )
            (ls1): Identity()
            (norm2): LayerNorm((8192,), eps=1e-05, elementwise_affine=True)
            (mlp): Mlp(
              (fc1): Linear(in_features=8192, out_features=2048, bias=True)
              (act): GELU(approximate='none')
              (drop1): Dropout(p=0.1, inplace=False)
              (fc2): Linear(in_features=2048, out_features=8192, bias=True)
            )
            (ls2): Identity()
          )
        )
      )
    )
    (norm): LayerNorm((8192,), eps=1e-05, elementwise_affine=True)
    (head): Sequential(
      (0): Linear(in_features=8192, out_features=8192, bias=True)
      (1): GELU(approximate='none')
      (2): Linear(in_features=8192, out_features=8192, bias=True)
      (3): GELU(approximate='none')
      (4): Pred_Rearrange()
      (5): Linear(in_features=8192, out_features=2048, bias=True)
    )
  )
)
len(dict_root_dirs) 1
rank  0 lister_train reset: mpi-esm 9 9 9
use_ddstore is : 0
memory stats reset, ready to track
/lustre/orion/world-shared/stf218/atsaris/DEEPCAM_2022/new_env/miniconda/env_rocm/lib/python3.8/site-packages/torchvision-0.18.0a0+4c0f441-py3.8-linux-x86_64.egg/torchvision/io/image.py:13: UserWarning: Failed to load image Python extension: ''If you don't plan on using image functionality from `torchvision.io`, you can ignore this warning. Otherwise, there might be something wrong with your environment. Did you have `libjpeg` or `libpng` installed before building `torchvision` from source?
…
parameter name  head.0.bias  requires_gradient  True size torch.Size([8192])
parameter name  head.2.weight  requires_gradient  True size torch.Size([8192, 8192])
parameter name  head.2.bias  requires_gradient  True size torch.Size([8192])
parameter name  head.5.weight  requires_gradient  True size torch.Size([512, 8192])
parameter name  head.5.bias  requires_gradient  True size torch.Size([512])
total_params before FSDP tensor(159941120) params_per_gpu tensor(159941120)
total_params after FSDP FullyShardedDataParallel(
  (_fsdp_wrapped_module): ClimaX(
    (token_embeds): ModuleList(
      (0-31): 32 x PatchEmbed(
        (proj): Conv2d(1, 8192, kernel_size=(4, 4), stride=(4, 4))
        (norm): Identity()
      )
    )
    (lead_time_embed): Linear(in_features=1, out_features=8192, bias=True)
    (pos_drop): Dropout(p=0.1, inplace=False)
    (head): Sequential(
      (0): Linear(in_features=8192, out_features=8192, bias=True)
      (1): GELU(approximate='none')
      (2): Linear(in_features=8192, out_features=8192, bias=True)
      (3): GELU(approximate='none')
      (4): Pred_Rearrange()
      (5): Linear(in_features=8192, out_features=512, bias=True)
    )
  )
)
len(dict_root_dirs) 1
use_ddstore is : 0
len(dict_root_dirs) 1
use_ddstore is : 0
len(dict_root_dirs) 1
use_ddstore is : 0
len(dict_root_dirs) 1
use_ddstore is : 0
len(dict_root_dirs) 1
use_ddstore is : 0
len(dict_root_dirs) 1
use_ddstore is : 0
len(dict_root_dirs) 1
use_ddstore is : 0
len(dict_root_dirs) 1
rank  0 lister_train reset: mpi-esm 9 9 9
…
parameter name  head.0.bias  requires_gradient  True size torch.Size([8192])
parameter name  head.2.weight  requires_gradient  True size torch.Size([8192, 8192])
parameter name  head.2.bias  requires_gradient  True size torch.Size([8192])
parameter name  head.5.weight  requires_gradient  True size torch.Size([1024, 8192])
parameter name  head.5.bias  requires_gradient  True size torch.Size([1024])
total_params before FSDP tensor(168854528) params_per_gpu tensor(168854528)
total_params after FSDP FullyShardedDataParallel(
  (_fsdp_wrapped_module): ClimaX(
    (token_embeds): ModuleList(
      (0-63): 64 x PatchEmbed(
        (proj): Conv2d(1, 8192, kernel_size=(4, 4), stride=(4, 4))
        (norm): Identity()
      )
    )
    (lead_time_embed): Linear(in_features=1, out_features=8192, bias=True)
    (pos_drop): Dropout(p=0.1, inplace=False)
    (head): Sequential(
      (0): Linear(in_features=8192, out_features=8192, bias=True)
      (1): GELU(approximate='none')
      (2): Linear(in_features=8192, out_features=8192, bias=True)
      (3): GELU(approximate='none')
      (4): Pred_Rearrange()
      (5): Linear(in_features=8192, out_features=1024, bias=True)
    )
  )
)
len(dict_root_dirs) 1
rank  0 lister_train reset: mpi-esm 9 9 9
use_ddstore is : 0
len(dict_root_dirs) 1
use_ddstore is : 0
len(dict_root_dirs) 1
use_ddstore is : 0
len(dict_root_dirs) 1
use_ddstore is : 0
len(dict_root_dirs) 1
rank  15 lister_train reset: mpi-esm 9 9 9
use_ddstore is : 0
len(dict_root_dirs) 1
use_ddstore is : 0
len(dict_root_dirs) 1
…
parameter name  head.0.bias  requires_gradient  True size torch.Size([8192])
parameter name  head.2.weight  requires_gradient  True size torch.Size([8192, 8192])
parameter name  head.2.bias  requires_gradient  True size torch.Size([8192])
parameter name  head.5.weight  requires_gradient  True size torch.Size([2048, 8192])
parameter name  head.5.bias  requires_gradient  True size torch.Size([2048])
total_params before FSDP tensor(186681344) params_per_gpu tensor(186681344)
total_params after FSDP FullyShardedDataParallel(
  (_fsdp_wrapped_module): ClimaX(
    (token_embeds): ModuleList(
      (0-127): 128 x PatchEmbed(
        (proj): Conv2d(1, 8192, kernel_size=(4, 4), stride=(4, 4))
        (norm): Identity()
      )
    )
    (lead_time_embed): Linear(in_features=1, out_features=8192, bias=True)
    (pos_drop): Dropout(p=0.1, inplace=False)
    (head): Sequential(
      (0): Linear(in_features=8192, out_features=8192, bias=True)
      (1): GELU(approximate='none')
      (2): Linear(in_features=8192, out_features=8192, bias=True)
      (3): GELU(approximate='none')
      (4): Pred_Rearrange()
      (5): Linear(in_features=8192, out_features=2048, bias=True)
    )
  )
)
len(dict_root_dirs) 1
use_ddstore is : 0
len(dict_root_dirs) 1
use_ddstore is : 0
len(dict_root_dirs) 1
use_ddstore is : 0
len(dict_root_dirs) 1
use_ddstore is : 0
len(dict_root_dirs) 1
use_ddstore is : 0
len(dict_root_dirs) 1
use_ddstore is : 0
len(dict_root_dirs) 1
rank  15 lister_train reset: mpi-esm 9 9 9
use_ddstore is : 0
len(dict_root_dirs) 1
…
parameter name  head.0.bias  requires_gradient  True size torch.Size([8192])
parameter name  head.2.weight  requires_gradient  True size torch.Size([8192, 8192])
parameter name  head.2.bias  requires_gradient  True size torch.Size([8192])
parameter name  head.5.weight  requires_gradient  True size torch.Size([512, 8192])
parameter name  head.5.bias  requires_gradient  True size torch.Size([512])
total_params before FSDP tensor(428515840) params_per_gpu tensor(176734720)
total_params after FSDP FullyShardedDataParallel(
  (_fsdp_wrapped_module): ClimaX(
    (token_embeds): ModuleList(
      (0-31): 32 x PatchEmbed(
        (proj): Conv2d(1, 8192, kernel_size=(4, 4), stride=(4, 4))
        (norm): Identity()
      )
    )
    (var_agg): FullyShardedDataParallel(
      (_fsdp_wrapped_module): CheckpointWrapper(
        (_checkpoint_wrapped_module): VariableMapping_Attention(
          (q): Linear(in_features=8192, out_features=512, bias=False)
          (kv): Linear(in_features=8192, out_features=1024, bias=False)
          (attn_drop): Dropout(p=0.0, inplace=False)
          (proj): Linear(in_features=512, out_features=8192, bias=True)
          (proj_drop): Dropout(p=0.0, inplace=False)
        )
      )
    )
    (lead_time_embed): Linear(in_features=1, out_features=8192, bias=True)
    (pos_drop): Dropout(p=0.1, inplace=False)
    (head): Sequential(
      (0): Linear(in_features=8192, out_features=8192, bias=True)
      (1): GELU(approximate='none')
      (2): Linear(in_features=8192, out_features=8192, bias=True)
      (3): GELU(approximate='none')
      (4): Pred_Rearrange()
      (5): Linear(in_features=8192, out_features=512, bias=True)
    )
  )
)
len(dict_root_dirs) 1
use_ddstore is : 0
len(dict_root_dirs) 1
use_ddstore is : 0
len(dict_root_dirs) 1
rank  15 lister_train reset: mpi-esm 9 9 9
use_ddstore is : 0
len(dict_root_dirs) 1
use_ddstore is : 0
len(dict_root_dirs) 1
use_ddstore is : 0
len(dict_root_dirs) 1
use_ddstore is : 0
len(dict_root_dirs) 1
use_ddstore is : 0
len(dict_root_dirs) 1
…
parameter name  head.0.bias  requires_gradient  True size torch.Size([8192])
parameter name  head.2.weight  requires_gradient  True size torch.Size([8192, 8192])
parameter name  head.2.bias  requires_gradient  True size torch.Size([8192])
parameter name  head.5.weight  requires_gradient  True size torch.Size([1024, 8192])
parameter name  head.5.bias  requires_gradient  True size torch.Size([1024])
total_params before FSDP tensor(437429248) params_per_gpu tensor(185648128)
total_params after FSDP FullyShardedDataParallel(
  (_fsdp_wrapped_module): ClimaX(
    (token_embeds): ModuleList(
      (0-63): 64 x PatchEmbed(
        (proj): Conv2d(1, 8192, kernel_size=(4, 4), stride=(4, 4))
        (norm): Identity()
      )
    )
    (var_agg): FullyShardedDataParallel(
      (_fsdp_wrapped_module): CheckpointWrapper(
        (_checkpoint_wrapped_module): VariableMapping_Attention(
          (q): Linear(in_features=8192, out_features=512, bias=False)
          (kv): Linear(in_features=8192, out_features=1024, bias=False)
          (attn_drop): Dropout(p=0.0, inplace=False)
          (proj): Linear(in_features=512, out_features=8192, bias=True)
          (proj_drop): Dropout(p=0.0, inplace=False)
        )
      )
    )
    (lead_time_embed): Linear(in_features=1, out_features=8192, bias=True)
    (pos_drop): Dropout(p=0.1, inplace=False)
    (head): Sequential(
      (0): Linear(in_features=8192, out_features=8192, bias=True)
      (1): GELU(approximate='none')
      (2): Linear(in_features=8192, out_features=8192, bias=True)
      (3): GELU(approximate='none')
      (4): Pred_Rearrange()
      (5): Linear(in_features=8192, out_features=1024, bias=True)
    )
  )
)
len(dict_root_dirs) 1
use_ddstore is : 0
len(dict_root_dirs) 1
use_ddstore is : 0
len(dict_root_dirs) 1
use_ddstore is : 0
len(dict_root_dirs) 1
use_ddstore is : 0
len(dict_root_dirs) 1
use_ddstore is : 0
len(dict_root_dirs) 1
rank  15 lister_train reset: mpi-esm 9 9 9
use_ddstore is : 0
len(dict_root_dirs) 1
use_ddstore is : 0
len(dict_root_dirs) 1
…
parameter name  head.0.bias  requires_gradient  True size torch.Size([8192])
parameter name  head.2.weight  requires_gradient  True size torch.Size([8192, 8192])
parameter name  head.2.bias  requires_gradient  True size torch.Size([8192])
parameter name  head.5.weight  requires_gradient  True size torch.Size([2048, 8192])
parameter name  head.5.bias  requires_gradient  True size torch.Size([2048])
total_params before FSDP tensor(455256064) params_per_gpu tensor(203474944)
total_params after FSDP FullyShardedDataParallel(
  (_fsdp_wrapped_module): ClimaX(
    (token_embeds): ModuleList(
      (0-127): 128 x PatchEmbed(
        (proj): Conv2d(1, 8192, kernel_size=(4, 4), stride=(4, 4))
        (norm): Identity()
      )
    )
    (var_agg): FullyShardedDataParallel(
      (_fsdp_wrapped_module): CheckpointWrapper(
        (_checkpoint_wrapped_module): VariableMapping_Attention(
          (q): Linear(in_features=8192, out_features=512, bias=False)
          (kv): Linear(in_features=8192, out_features=1024, bias=False)
          (attn_drop): Dropout(p=0.0, inplace=False)
          (proj): Linear(in_features=512, out_features=8192, bias=True)
          (proj_drop): Dropout(p=0.0, inplace=False)
        )
      )
    )
    (lead_time_embed): Linear(in_features=1, out_features=8192, bias=True)
    (pos_drop): Dropout(p=0.1, inplace=False)
    (head): Sequential(
      (0): Linear(in_features=8192, out_features=8192, bias=True)
      (1): GELU(approximate='none')
      (2): Linear(in_features=8192, out_features=8192, bias=True)
      (3): GELU(approximate='none')
      (4): Pred_Rearrange()
      (5): Linear(in_features=8192, out_features=2048, bias=True)
    )
  )
)
len(dict_root_dirs) 1
use_ddstore is : 0
len(dict_root_dirs) 1
use_ddstore is : 0
len(dict_root_dirs) 1
use_ddstore is : 0
len(dict_root_dirs) 1
use_ddstore is : 0
len(dict_root_dirs) 1
rank  0 lister_train reset: mpi-esm 9 9 9
use_ddstore is : 0
len(dict_root_dirs) 1
use_ddstore is : 0
len(dict_root_dirs) 1
use_ddstore is : 0
len(dict_root_dirs) 1
…
parameter name  head.0.bias  requires_gradient  True size torch.Size([8192])
parameter name  head.2.weight  requires_gradient  True size torch.Size([8192, 8192])
parameter name  head.2.bias  requires_gradient  True size torch.Size([8192])
parameter name  head.5.weight  requires_gradient  True size torch.Size([512, 8192])
parameter name  head.5.bias  requires_gradient  True size torch.Size([512])
total_params before FSDP tensor(4723622400) params_per_gpu tensor(445186560)
total_params after FSDP FullyShardedDataParallel(
  (_fsdp_wrapped_module): ClimaX(
    (token_embeds): ModuleList(
      (0-31): 32 x PatchEmbed(
        (proj): Conv2d(1, 8192, kernel_size=(4, 4), stride=(4, 4))
        (norm): Identity()
      )
    )
    (var_agg): FullyShardedDataParallel(
      (_fsdp_wrapped_module): CheckpointWrapper(
        (_checkpoint_wrapped_module): VariableMapping_Attention(
          (q): Linear(in_features=8192, out_features=512, bias=False)
          (kv): Linear(in_features=8192, out_features=1024, bias=False)
          (attn_drop): Dropout(p=0.0, inplace=False)
          (proj): Linear(in_features=512, out_features=8192, bias=True)
          (proj_drop): Dropout(p=0.0, inplace=False)
        )
      )
    )
    (var_agg_per_rank): CustomCrossAttention(
      (q): Linear(in_features=8192, out_features=8192, bias=False)
      (kv): Linear(in_features=8192, out_features=16384, bias=False)
      (attn_drop): Dropout(p=0.0, inplace=False)
      (proj): Linear(in_features=8192, out_features=8192, bias=True)
      (proj_drop): Dropout(p=0.0, inplace=False)
    )
    (lead_time_embed): Linear(in_features=1, out_features=8192, bias=True)
    (pos_drop): Dropout(p=0.1, inplace=False)
    (head): Sequential(
      (0): Linear(in_features=8192, out_features=8192, bias=True)
      (1): GELU(approximate='none')
      (2): Linear(in_features=8192, out_features=8192, bias=True)
      (3): GELU(approximate='none')
      (4): Pred_Rearrange()
      (5): Linear(in_features=8192, out_features=512, bias=True)
    )
  )
)
len(dict_root_dirs) 1
use_ddstore is : 0
len(dict_root_dirs) 1
use_ddstore is : 0
len(dict_root_dirs) 1
use_ddstore is : 0
len(dict_root_dirs) 1
use_ddstore is : 0
len(dict_root_dirs) 1
rank  15 lister_train reset: mpi-esm 9 9 9
use_ddstore is : 0
len(dict_root_dirs) 1
rank  0 lister_train reset: mpi-esm 9 9 9
use_ddstore is : 0
len(dict_root_dirs) 1
…
parameter name  head.0.bias  requires_gradient  True size torch.Size([8192])
parameter name  head.2.weight  requires_gradient  True size torch.Size([8192, 8192])
parameter name  head.2.bias  requires_gradient  True size torch.Size([8192])
parameter name  head.5.weight  requires_gradient  True size torch.Size([1024, 8192])
parameter name  head.5.bias  requires_gradient  True size torch.Size([1024])
total_params before FSDP tensor(4732535808) params_per_gpu tensor(454099968)
total_params after FSDP FullyShardedDataParallel(
  (_fsdp_wrapped_module): ClimaX(
    (token_embeds): ModuleList(
      (0-63): 64 x PatchEmbed(
        (proj): Conv2d(1, 8192, kernel_size=(4, 4), stride=(4, 4))
        (norm): Identity()
      )
    )
    (var_agg): FullyShardedDataParallel(
      (_fsdp_wrapped_module): CheckpointWrapper(
        (_checkpoint_wrapped_module): VariableMapping_Attention(
          (q): Linear(in_features=8192, out_features=512, bias=False)
          (kv): Linear(in_features=8192, out_features=1024, bias=False)
          (attn_drop): Dropout(p=0.0, inplace=False)
          (proj): Linear(in_features=512, out_features=8192, bias=True)
          (proj_drop): Dropout(p=0.0, inplace=False)
        )
      )
    )
    (var_agg_per_rank): CustomCrossAttention(
      (q): Linear(in_features=8192, out_features=8192, bias=False)
      (kv): Linear(in_features=8192, out_features=16384, bias=False)
      (attn_drop): Dropout(p=0.0, inplace=False)
      (proj): Linear(in_features=8192, out_features=8192, bias=True)
      (proj_drop): Dropout(p=0.0, inplace=False)
    )
    (lead_time_embed): Linear(in_features=1, out_features=8192, bias=True)
    (pos_drop): Dropout(p=0.1, inplace=False)
    (head): Sequential(
      (0): Linear(in_features=8192, out_features=8192, bias=True)
      (1): GELU(approximate='none')
      (2): Linear(in_features=8192, out_features=8192, bias=True)
      (3): GELU(approximate='none')
      (4): Pred_Rearrange()
      (5): Linear(in_features=8192, out_features=1024, bias=True)
    )
  )
)
len(dict_root_dirs) 1
use_ddstore is : 0
len(dict_root_dirs) 1
use_ddstore is : 0
len(dict_root_dirs) 1
use_ddstore is : 0
len(dict_root_dirs) 1
rank  0 lister_train reset: mpi-esm 9 9 9
use_ddstore is : 0
len(dict_root_dirs) 1
use_ddstore is : 0
len(dict_root_dirs) 1
use_ddstore is : 0
len(dict_root_dirs) 1
use_ddstore is : 0
len(dict_root_dirs) 1
…
parameter name  head.0.bias  requires_gradient  True size torch.Size([8192])
parameter name  head.2.weight  requires_gradient  True size torch.Size([8192, 8192])
parameter name  head.2.bias  requires_gradient  True size torch.Size([8192])
parameter name  head.5.weight  requires_gradient  True size torch.Size([2048, 8192])
parameter name  head.5.bias  requires_gradient  True size torch.Size([2048])
total_params before FSDP tensor(4750362624) params_per_gpu tensor(471926784)
total_params after FSDP FullyShardedDataParallel(
  (_fsdp_wrapped_module): ClimaX(
    (token_embeds): ModuleList(
      (0-127): 128 x PatchEmbed(
        (proj): Conv2d(1, 8192, kernel_size=(4, 4), stride=(4, 4))
        (norm): Identity()
      )
    )
    (var_agg): FullyShardedDataParallel(
      (_fsdp_wrapped_module): CheckpointWrapper(
        (_checkpoint_wrapped_module): VariableMapping_Attention(
          (q): Linear(in_features=8192, out_features=512, bias=False)
          (kv): Linear(in_features=8192, out_features=1024, bias=False)
          (attn_drop): Dropout(p=0.0, inplace=False)
          (proj): Linear(in_features=512, out_features=8192, bias=True)
          (proj_drop): Dropout(p=0.0, inplace=False)
        )
      )
    )
    (var_agg_per_rank): CustomCrossAttention(
      (q): Linear(in_features=8192, out_features=8192, bias=False)
      (kv): Linear(in_features=8192, out_features=16384, bias=False)
      (attn_drop): Dropout(p=0.0, inplace=False)
      (proj): Linear(in_features=8192, out_features=8192, bias=True)
      (proj_drop): Dropout(p=0.0, inplace=False)
    )
    (lead_time_embed): Linear(in_features=1, out_features=8192, bias=True)
    (pos_drop): Dropout(p=0.1, inplace=False)
    (head): Sequential(
      (0): Linear(in_features=8192, out_features=8192, bias=True)
      (1): GELU(approximate='none')
      (2): Linear(in_features=8192, out_features=8192, bias=True)
      (3): GELU(approximate='none')
      (4): Pred_Rearrange()
      (5): Linear(in_features=8192, out_features=2048, bias=True)
    )
  )
)
len(dict_root_dirs) 1
use_ddstore is : 0
len(dict_root_dirs) 1
use_ddstore is : 0
len(dict_root_dirs) 1
use_ddstore is : 0
len(dict_root_dirs) 1
use_ddstore is : 0
len(dict_root_dirs) 1
use_ddstore is : 0
len(dict_root_dirs) 1
use_ddstore is : 0
len(dict_root_dirs) 1
use_ddstore is : 0
len(dict_root_dirs) 1
use_ddstore is : 0
len(dict_root_dirs) 1
…
