…
parameter name  head.0.bias  requires_gradient  True size torch.Size([6144])
parameter name  head.2.weight  requires_gradient  True size torch.Size([6144, 6144])
parameter name  head.2.bias  requires_gradient  True size torch.Size([6144])
parameter name  head.5.weight  requires_gradient  True size torch.Size([2048, 6144])
parameter name  head.5.bias  requires_gradient  True size torch.Size([2048])
total_params before FSDP tensor(14766731264) params_per_gpu tensor(1947035648)
total_params after FSDP FullyShardedDataParallel(
  (_fsdp_wrapped_module): ClimaX(
    (token_embeds): ModuleList(
      (0-127): 128 x PatchEmbed(
        (proj): Conv2d(1, 6144, kernel_size=(4, 4), stride=(4, 4))
        (norm): Identity()
      )
    )
    (var_agg): FullyShardedDataParallel(
      (_fsdp_wrapped_module): CheckpointWrapper(
        (_checkpoint_wrapped_module): VariableMapping_Attention(
          (q): Linear(in_features=6144, out_features=768, bias=False)
          (kv): Linear(in_features=6144, out_features=1536, bias=False)
          (attn_drop): Dropout(p=0.0, inplace=False)
          (proj): Linear(in_features=768, out_features=6144, bias=True)
          (proj_drop): Dropout(p=0.0, inplace=False)
        )
      )
    )
    (lead_time_embed): Linear(in_features=1, out_features=6144, bias=True)
    (pos_drop): Dropout(p=0.1, inplace=False)
    (blocks): ModuleList(
      (0-31): 32 x FullyShardedDataParallel(
        (_fsdp_wrapped_module): CheckpointWrapper(
          (_checkpoint_wrapped_module): Block(
            (norm1): LayerNorm((6144,), eps=1e-05, elementwise_affine=True)
            (attn): Attention(
              (qkv): Linear(in_features=6144, out_features=2304, bias=True)
              (attn_drop): Dropout(p=0.0, inplace=False)
              (proj): Linear(in_features=768, out_features=6144, bias=True)
              (proj_drop): Dropout(p=0.1, inplace=False)
            )
            (ls1): Identity()
            (norm2): LayerNorm((6144,), eps=1e-05, elementwise_affine=True)
            (mlp): Mlp(
              (fc1): Linear(in_features=6144, out_features=3072, bias=True)
              (act): GELU(approximate='none')
              (drop1): Dropout(p=0.1, inplace=False)
              (fc2): Linear(in_features=3072, out_features=6144, bias=True)
            )
            (ls2): Identity()
          )
        )
      )
    )
    (norm): LayerNorm((6144,), eps=1e-05, elementwise_affine=True)
    (head): Sequential(
      (0): Linear(in_features=6144, out_features=6144, bias=True)
      (1): GELU(approximate='none')
      (2): Linear(in_features=6144, out_features=6144, bias=True)
      (3): GELU(approximate='none')
      (4): Pred_Rearrange()
      (5): Linear(in_features=6144, out_features=2048, bias=True)
    )
  )
)
len(dict_root_dirs) 1
use_ddstore is : 0
len(dict_root_dirs) 1
use_ddstore is : 0
len(dict_root_dirs) 1
use_ddstore is : 0
len(dict_root_dirs) 1
use_ddstore is : 0
len(dict_root_dirs) 1
use_ddstore is : 0
len(dict_root_dirs) 1
rank  7 lister_train reset: mpi-esm 9 9 9
rank  7 lister_test reset: mpi-esm 9 9 9
use_ddstore is : 0
use_ddstore is : 0
…
parameter name  head.0.bias  requires_gradient  True size torch.Size([6144])
parameter name  head.2.weight  requires_gradient  True size torch.Size([6144, 6144])
parameter name  head.2.bias  requires_gradient  True size torch.Size([6144])
parameter name  head.5.weight  requires_gradient  True size torch.Size([2048, 6144])
parameter name  head.5.bias  requires_gradient  True size torch.Size([2048])
total_params before FSDP tensor(114845696) params_per_gpu tensor(114845696)
total_params after FSDP FullyShardedDataParallel(
  (_fsdp_wrapped_module): ClimaX(
    (token_embeds): ModuleList(
      (0-127): 128 x PatchEmbed(
        (proj): Conv2d(1, 6144, kernel_size=(4, 4), stride=(4, 4))
        (norm): Identity()
      )
    )
    (lead_time_embed): Linear(in_features=1, out_features=6144, bias=True)
    (pos_drop): Dropout(p=0.1, inplace=False)
    (head): Sequential(
      (0): Linear(in_features=6144, out_features=6144, bias=True)
      (1): GELU(approximate='none')
      (2): Linear(in_features=6144, out_features=6144, bias=True)
      (3): GELU(approximate='none')
      (4): Pred_Rearrange()
      (5): Linear(in_features=6144, out_features=2048, bias=True)
    )
  )
)
len(dict_root_dirs) 1
use_ddstore is : 0
len(dict_root_dirs) 1
use_ddstore is : 0
len(dict_root_dirs) 1
use_ddstore is : 0
len(dict_root_dirs) 1
use_ddstore is : 0
len(dict_root_dirs) 1
use_ddstore is : 0
len(dict_root_dirs) 1
use_ddstore is : 0
len(dict_root_dirs) 1
rank  7 lister_train reset: mpi-esm 9 9 9
rank  7 lister_test reset: mpi-esm 9 9 9
…
parameter name  head.0.bias  requires_gradient  True size torch.Size([6144])
parameter name  head.2.weight  requires_gradient  True size torch.Size([6144, 6144])
parameter name  head.2.bias  requires_gradient  True size torch.Size([6144])
parameter name  head.5.weight  requires_gradient  True size torch.Size([2048, 6144])
parameter name  head.5.bias  requires_gradient  True size torch.Size([2048])
total_params before FSDP tensor(265895936) params_per_gpu tensor(133732352)
total_params after FSDP FullyShardedDataParallel(
  (_fsdp_wrapped_module): ClimaX(
    (token_embeds): ModuleList(
      (0-127): 128 x PatchEmbed(
        (proj): Conv2d(1, 6144, kernel_size=(4, 4), stride=(4, 4))
        (norm): Identity()
      )
    )
    (var_agg): FullyShardedDataParallel(
      (_fsdp_wrapped_module): CheckpointWrapper(
        (_checkpoint_wrapped_module): VariableMapping_Attention(
          (q): Linear(in_features=6144, out_features=768, bias=False)
          (kv): Linear(in_features=6144, out_features=1536, bias=False)
          (attn_drop): Dropout(p=0.0, inplace=False)
          (proj): Linear(in_features=768, out_features=6144, bias=True)
          (proj_drop): Dropout(p=0.0, inplace=False)
        )
      )
    )
    (lead_time_embed): Linear(in_features=1, out_features=6144, bias=True)
    (pos_drop): Dropout(p=0.1, inplace=False)
    (head): Sequential(
      (0): Linear(in_features=6144, out_features=6144, bias=True)
      (1): GELU(approximate='none')
      (2): Linear(in_features=6144, out_features=6144, bias=True)
      (3): GELU(approximate='none')
      (4): Pred_Rearrange()
      (5): Linear(in_features=6144, out_features=2048, bias=True)
    )
  )
)
len(dict_root_dirs) 1
use_ddstore is : 0
len(dict_root_dirs) 1
rank  7 lister_train reset: mpi-esm 9 9 9
rank  7 lister_test reset: mpi-esm 9 9 9
use_ddstore is : 0
len(dict_root_dirs) 1
use_ddstore is : 0
len(dict_root_dirs) 1
use_ddstore is : 0
len(dict_root_dirs) 1
use_ddstore is : 0
len(dict_root_dirs) 1
use_ddstore is : 0
len(dict_root_dirs) 1
…
parameter name  head.0.bias  requires_gradient  True size torch.Size([6144])
parameter name  head.2.weight  requires_gradient  True size torch.Size([6144, 6144])
parameter name  head.2.bias  requires_gradient  True size torch.Size([6144])
parameter name  head.5.weight  requires_gradient  True size torch.Size([2048, 6144])
parameter name  head.5.bias  requires_gradient  True size torch.Size([2048])
total_params before FSDP tensor(15974746112) params_per_gpu tensor(2098042880)
total_params after FSDP FullyShardedDataParallel(
  (_fsdp_wrapped_module): ClimaX(
    (token_embeds): ModuleList(
      (0-127): 128 x PatchEmbed(
        (proj): Conv2d(1, 6144, kernel_size=(4, 4), stride=(4, 4))
        (norm): Identity()
      )
    )
    (var_agg): FullyShardedDataParallel(
      (_fsdp_wrapped_module): CheckpointWrapper(
        (_checkpoint_wrapped_module): VariableMapping_Attention(
          (q): Linear(in_features=6144, out_features=768, bias=False)
          (kv): Linear(in_features=6144, out_features=1536, bias=False)
          (attn_drop): Dropout(p=0.0, inplace=False)
          (proj): Linear(in_features=768, out_features=6144, bias=True)
          (proj_drop): Dropout(p=0.0, inplace=False)
        )
      )
    )
    (var_agg_per_rank): CustomCrossAttention(
      (q): Linear(in_features=6144, out_features=6144, bias=False)
      (kv): Linear(in_features=6144, out_features=12288, bias=False)
      (attn_drop): Dropout(p=0.0, inplace=False)
      (proj): Linear(in_features=6144, out_features=6144, bias=True)
      (proj_drop): Dropout(p=0.0, inplace=False)
    )
    (lead_time_embed): Linear(in_features=1, out_features=6144, bias=True)
    (pos_drop): Dropout(p=0.1, inplace=False)
    (blocks): ModuleList(
      (0-31): 32 x FullyShardedDataParallel(
        (_fsdp_wrapped_module): CheckpointWrapper(
          (_checkpoint_wrapped_module): Block(
            (norm1): LayerNorm((6144,), eps=1e-05, elementwise_affine=True)
            (attn): Attention(
              (qkv): Linear(in_features=6144, out_features=2304, bias=True)
              (attn_drop): Dropout(p=0.0, inplace=False)
              (proj): Linear(in_features=768, out_features=6144, bias=True)
              (proj_drop): Dropout(p=0.1, inplace=False)
            )
            (ls1): Identity()
            (norm2): LayerNorm((6144,), eps=1e-05, elementwise_affine=True)
            (mlp): Mlp(
              (fc1): Linear(in_features=6144, out_features=3072, bias=True)
              (act): GELU(approximate='none')
              (drop1): Dropout(p=0.1, inplace=False)
              (fc2): Linear(in_features=3072, out_features=6144, bias=True)
            )
            (ls2): Identity()
          )
        )
      )
    )
    (norm): LayerNorm((6144,), eps=1e-05, elementwise_affine=True)
    (head): Sequential(
      (0): Linear(in_features=6144, out_features=6144, bias=True)
      (1): GELU(approximate='none')
      (2): Linear(in_features=6144, out_features=6144, bias=True)
      (3): GELU(approximate='none')
      (4): Pred_Rearrange()
      (5): Linear(in_features=6144, out_features=2048, bias=True)
    )
  )
)
len(dict_root_dirs) 1
use_ddstore is : 0
len(dict_root_dirs) 1
use_ddstore is : 0
len(dict_root_dirs) 1
use_ddstore is : 0
len(dict_root_dirs) 1
use_ddstore is : 0
len(dict_root_dirs) 1
use_ddstore is : 0
len(dict_root_dirs) 1
rank  7 lister_train reset: mpi-esm 9 9 9
rank  7 lister_test reset: mpi-esm 9 9 9
use_ddstore is : 0
len(dict_root_dirs) 1
…
parameter name  head.0.bias  requires_gradient  True size torch.Size([6144])
parameter name  head.2.weight  requires_gradient  True size torch.Size([6144, 6144])
parameter name  head.2.bias  requires_gradient  True size torch.Size([6144])
parameter name  head.5.weight  requires_gradient  True size torch.Size([2048, 6144])
parameter name  head.5.bias  requires_gradient  True size torch.Size([2048])
total_params before FSDP tensor(14766737425) params_per_gpu tensor(1947041809)
total_params after FSDP FullyShardedDataParallel(
  (_fsdp_wrapped_module): ClimaX(
    (token_embeds): ModuleList(
      (0-127): 128 x PatchEmbed(
        (proj): Conv2d(1, 6144, kernel_size=(4, 4), stride=(4, 4))
        (norm): Identity()
      )
    )
    (var_agg): FullyShardedDataParallel(
      (_fsdp_wrapped_module): CheckpointWrapper(
        (_checkpoint_wrapped_module): VariableMapping_Attention(
          (q): Linear(in_features=6144, out_features=768, bias=False)
          (kv): Linear(in_features=6144, out_features=1536, bias=False)
          (attn_drop): Dropout(p=0.0, inplace=False)
          (proj): Linear(in_features=768, out_features=6144, bias=True)
          (proj_drop): Dropout(p=0.0, inplace=False)
        )
      )
    )
    (var_linear_per_rank): Linear(in_features=16, out_features=1, bias=True)
    (lead_time_embed): Linear(in_features=1, out_features=6144, bias=True)
    (pos_drop): Dropout(p=0.1, inplace=False)
    (blocks): ModuleList(
      (0-31): 32 x FullyShardedDataParallel(
        (_fsdp_wrapped_module): CheckpointWrapper(
          (_checkpoint_wrapped_module): Block(
            (norm1): LayerNorm((6144,), eps=1e-05, elementwise_affine=True)
            (attn): Attention(
              (qkv): Linear(in_features=6144, out_features=2304, bias=True)
              (attn_drop): Dropout(p=0.0, inplace=False)
              (proj): Linear(in_features=768, out_features=6144, bias=True)
              (proj_drop): Dropout(p=0.1, inplace=False)
            )
            (ls1): Identity()
            (norm2): LayerNorm((6144,), eps=1e-05, elementwise_affine=True)
            (mlp): Mlp(
              (fc1): Linear(in_features=6144, out_features=3072, bias=True)
              (act): GELU(approximate='none')
              (drop1): Dropout(p=0.1, inplace=False)
              (fc2): Linear(in_features=3072, out_features=6144, bias=True)
            )
            (ls2): Identity()
          )
        )
      )
    )
    (norm): LayerNorm((6144,), eps=1e-05, elementwise_affine=True)
    (head): Sequential(
      (0): Linear(in_features=6144, out_features=6144, bias=True)
      (1): GELU(approximate='none')
      (2): Linear(in_features=6144, out_features=6144, bias=True)
      (3): GELU(approximate='none')
      (4): Pred_Rearrange()
      (5): Linear(in_features=6144, out_features=2048, bias=True)
    )
  )
)
len(dict_root_dirs) 1
use_ddstore is : 0
len(dict_root_dirs) 1
use_ddstore is : 0
len(dict_root_dirs) 1
use_ddstore is : 0
len(dict_root_dirs) 1
use_ddstore is : 0
len(dict_root_dirs) 1
use_ddstore is : 0
len(dict_root_dirs) 1
use_ddstore is : 0
len(dict_root_dirs) 1
rank  7 lister_train reset: mpi-esm 9 9 9
rank  7 lister_test reset: mpi-esm 9 9 9
…
