…
parameter name  head.0.bias  requires_gradient  True size torch.Size([6144])
parameter name  head.2.weight  requires_gradient  True size torch.Size([6144, 6144])
parameter name  head.2.bias  requires_gradient  True size torch.Size([6144])
parameter name  head.5.weight  requires_gradient  True size torch.Size([512, 6144])
parameter name  head.5.bias  requires_gradient  True size torch.Size([512])
total_params before FSDP tensor(94790144) params_per_gpu tensor(94790144)
total_params after FSDP FullyShardedDataParallel(
  (_fsdp_wrapped_module): ClimaX(
    (token_embeds): ModuleList(
      (0-31): 32 x PatchEmbed(
        (proj): Conv2d(1, 6144, kernel_size=(4, 4), stride=(4, 4))
        (norm): Identity()
      )
    )
    (lead_time_embed): Linear(in_features=1, out_features=6144, bias=True)
    (pos_drop): Dropout(p=0.1, inplace=False)
    (head): Sequential(
      (0): Linear(in_features=6144, out_features=6144, bias=True)
      (1): GELU(approximate='none')
      (2): Linear(in_features=6144, out_features=6144, bias=True)
      (3): GELU(approximate='none')
      (4): Pred_Rearrange()
      (5): Linear(in_features=6144, out_features=512, bias=True)
    )
  )
)
len(dict_root_dirs) 1
rank  0 lister_train reset: mpi-esm 9 9 9
use_ddstore is : 0
len(dict_root_dirs) 1
use_ddstore is : 0
len(dict_root_dirs) 1
use_ddstore is : 0
len(dict_root_dirs) 1
use_ddstore is : 0
len(dict_root_dirs) 1
use_ddstore is : 0
len(dict_root_dirs) 1
use_ddstore is : 0
len(dict_root_dirs) 1
rank  15 lister_train reset: mpi-esm 9 9 9
…
parameter name  head.0.bias  requires_gradient  True size torch.Size([6144])
parameter name  head.2.weight  requires_gradient  True size torch.Size([6144, 6144])
parameter name  head.2.bias  requires_gradient  True size torch.Size([6144])
parameter name  head.5.weight  requires_gradient  True size torch.Size([1024, 6144])
parameter name  head.5.bias  requires_gradient  True size torch.Size([1024])
total_params before FSDP tensor(101475328) params_per_gpu tensor(101475328)
total_params after FSDP FullyShardedDataParallel(
  (_fsdp_wrapped_module): ClimaX(
    (token_embeds): ModuleList(
      (0-63): 64 x PatchEmbed(
        (proj): Conv2d(1, 6144, kernel_size=(4, 4), stride=(4, 4))
        (norm): Identity()
      )
    )
    (lead_time_embed): Linear(in_features=1, out_features=6144, bias=True)
    (pos_drop): Dropout(p=0.1, inplace=False)
    (head): Sequential(
      (0): Linear(in_features=6144, out_features=6144, bias=True)
      (1): GELU(approximate='none')
      (2): Linear(in_features=6144, out_features=6144, bias=True)
      (3): GELU(approximate='none')
      (4): Pred_Rearrange()
      (5): Linear(in_features=6144, out_features=1024, bias=True)
    )
  )
)
len(dict_root_dirs) 1
rank  0 lister_train reset: mpi-esm 9 9 9
use_ddstore is : 0
len(dict_root_dirs) 1
use_ddstore is : 0
len(dict_root_dirs) 1
use_ddstore is : 0
len(dict_root_dirs) 1
use_ddstore is : 0
len(dict_root_dirs) 1
use_ddstore is : 0
len(dict_root_dirs) 1
use_ddstore is : 0
len(dict_root_dirs) 1
use_ddstore is : 0
len(dict_root_dirs) 1
…
parameter name  head.0.bias  requires_gradient  True size torch.Size([6144])
parameter name  head.2.weight  requires_gradient  True size torch.Size([6144, 6144])
parameter name  head.2.bias  requires_gradient  True size torch.Size([6144])
parameter name  head.5.weight  requires_gradient  True size torch.Size([2048, 6144])
parameter name  head.5.bias  requires_gradient  True size torch.Size([2048])
total_params before FSDP tensor(114845696) params_per_gpu tensor(114845696)
total_params after FSDP FullyShardedDataParallel(
  (_fsdp_wrapped_module): ClimaX(
    (token_embeds): ModuleList(
      (0-127): 128 x PatchEmbed(
        (proj): Conv2d(1, 6144, kernel_size=(4, 4), stride=(4, 4))
        (norm): Identity()
      )
    )
    (lead_time_embed): Linear(in_features=1, out_features=6144, bias=True)
    (pos_drop): Dropout(p=0.1, inplace=False)
    (head): Sequential(
      (0): Linear(in_features=6144, out_features=6144, bias=True)
      (1): GELU(approximate='none')
      (2): Linear(in_features=6144, out_features=6144, bias=True)
      (3): GELU(approximate='none')
      (4): Pred_Rearrange()
      (5): Linear(in_features=6144, out_features=2048, bias=True)
    )
  )
)
len(dict_root_dirs) 1
use_ddstore is : 0
len(dict_root_dirs) 1
use_ddstore is : 0
len(dict_root_dirs) 1
use_ddstore is : 0
len(dict_root_dirs) 1
use_ddstore is : 0
len(dict_root_dirs) 1
use_ddstore is : 0
len(dict_root_dirs) 1
use_ddstore is : 0
len(dict_root_dirs) 1
rank  15 lister_train reset: mpi-esm 9 9 9
use_ddstore is : 0
len(dict_root_dirs) 1
…
parameter name  head.0.bias  requires_gradient  True size torch.Size([6144])
parameter name  head.2.weight  requires_gradient  True size torch.Size([6144, 6144])
parameter name  head.2.bias  requires_gradient  True size torch.Size([6144])
parameter name  head.5.weight  requires_gradient  True size torch.Size([4096, 6144])
parameter name  head.5.bias  requires_gradient  True size torch.Size([4096])
total_params before FSDP tensor(141586432) params_per_gpu tensor(141586432)
total_params after FSDP FullyShardedDataParallel(
  (_fsdp_wrapped_module): ClimaX(
    (token_embeds): ModuleList(
      (0-255): 256 x PatchEmbed(
        (proj): Conv2d(1, 6144, kernel_size=(4, 4), stride=(4, 4))
        (norm): Identity()
      )
    )
    (lead_time_embed): Linear(in_features=1, out_features=6144, bias=True)
    (pos_drop): Dropout(p=0.1, inplace=False)
    (head): Sequential(
      (0): Linear(in_features=6144, out_features=6144, bias=True)
      (1): GELU(approximate='none')
      (2): Linear(in_features=6144, out_features=6144, bias=True)
      (3): GELU(approximate='none')
      (4): Pred_Rearrange()
      (5): Linear(in_features=6144, out_features=4096, bias=True)
    )
  )
)
len(dict_root_dirs) 1
rank  0 lister_train reset: mpi-esm 9 9 9
use_ddstore is : 0
len(dict_root_dirs) 1
use_ddstore is : 0
len(dict_root_dirs) 1
use_ddstore is : 0
len(dict_root_dirs) 1
use_ddstore is : 0
len(dict_root_dirs) 1
use_ddstore is : 0
len(dict_root_dirs) 1
use_ddstore is : 0
len(dict_root_dirs) 1
use_ddstore is : 0
len(dict_root_dirs) 1
…
parameter name  head.0.bias  requires_gradient  True size torch.Size([6144])
parameter name  head.2.weight  requires_gradient  True size torch.Size([6144, 6144])
parameter name  head.2.bias  requires_gradient  True size torch.Size([6144])
parameter name  head.5.weight  requires_gradient  True size torch.Size([8192, 6144])
parameter name  head.5.bias  requires_gradient  True size torch.Size([8192])
total_params before FSDP tensor(195067904) params_per_gpu tensor(195067904)
total_params after FSDP FullyShardedDataParallel(
  (_fsdp_wrapped_module): ClimaX(
    (token_embeds): ModuleList(
      (0-511): 512 x PatchEmbed(
        (proj): Conv2d(1, 6144, kernel_size=(4, 4), stride=(4, 4))
        (norm): Identity()
      )
    )
    (lead_time_embed): Linear(in_features=1, out_features=6144, bias=True)
    (pos_drop): Dropout(p=0.1, inplace=False)
    (head): Sequential(
      (0): Linear(in_features=6144, out_features=6144, bias=True)
      (1): GELU(approximate='none')
      (2): Linear(in_features=6144, out_features=6144, bias=True)
      (3): GELU(approximate='none')
      (4): Pred_Rearrange()
      (5): Linear(in_features=6144, out_features=8192, bias=True)
    )
  )
)
len(dict_root_dirs) 1
use_ddstore is : 0
len(dict_root_dirs) 1
use_ddstore is : 0
len(dict_root_dirs) 1
use_ddstore is : 0
len(dict_root_dirs) 1
use_ddstore is : 0
len(dict_root_dirs) 1
use_ddstore is : 0
len(dict_root_dirs) 1
use_ddstore is : 0
len(dict_root_dirs) 1
use_ddstore is : 0
len(dict_root_dirs) 1
use_ddstore is : 0
len(dict_root_dirs) 1
…
parameter name  head.0.bias  requires_gradient  True size torch.Size([6144])
parameter name  head.2.weight  requires_gradient  True size torch.Size([6144, 6144])
parameter name  head.2.bias  requires_gradient  True size torch.Size([6144])
parameter name  head.5.weight  requires_gradient  True size torch.Size([12288, 6144])
parameter name  head.5.bias  requires_gradient  True size torch.Size([12288])
total_params before FSDP tensor(248549376) params_per_gpu tensor(248549376)
total_params after FSDP FullyShardedDataParallel(
  (_fsdp_wrapped_module): ClimaX(
    (token_embeds): ModuleList(
      (0-767): 768 x PatchEmbed(
        (proj): Conv2d(1, 6144, kernel_size=(4, 4), stride=(4, 4))
        (norm): Identity()
      )
    )
    (lead_time_embed): Linear(in_features=1, out_features=6144, bias=True)
    (pos_drop): Dropout(p=0.1, inplace=False)
    (head): Sequential(
      (0): Linear(in_features=6144, out_features=6144, bias=True)
      (1): GELU(approximate='none')
      (2): Linear(in_features=6144, out_features=6144, bias=True)
      (3): GELU(approximate='none')
      (4): Pred_Rearrange()
      (5): Linear(in_features=6144, out_features=12288, bias=True)
    )
  )
)
len(dict_root_dirs) 1
use_ddstore is : 0
len(dict_root_dirs) 1
use_ddstore is : 0
len(dict_root_dirs) 1
use_ddstore is : 0
len(dict_root_dirs) 1
use_ddstore is : 0
len(dict_root_dirs) 1
use_ddstore is : 0
len(dict_root_dirs) 1
use_ddstore is : 0
len(dict_root_dirs) 1
rank  15 lister_train reset: mpi-esm 9 9 9
use_ddstore is : 0
len(dict_root_dirs) 1
…
parameter name  head.0.bias  requires_gradient  True size torch.Size([6144])
parameter name  head.2.weight  requires_gradient  True size torch.Size([6144, 6144])
parameter name  head.2.bias  requires_gradient  True size torch.Size([6144])
parameter name  head.5.weight  requires_gradient  True size torch.Size([16384, 6144])
parameter name  head.5.bias  requires_gradient  True size torch.Size([16384])
total_params before FSDP tensor(302030848) params_per_gpu tensor(302030848)
total_params after FSDP FullyShardedDataParallel(
  (_fsdp_wrapped_module): ClimaX(
    (token_embeds): ModuleList(
      (0-1023): 1024 x PatchEmbed(
        (proj): Conv2d(1, 6144, kernel_size=(4, 4), stride=(4, 4))
        (norm): Identity()
      )
    )
    (lead_time_embed): Linear(in_features=1, out_features=6144, bias=True)
    (pos_drop): Dropout(p=0.1, inplace=False)
    (head): Sequential(
      (0): Linear(in_features=6144, out_features=6144, bias=True)
      (1): GELU(approximate='none')
      (2): Linear(in_features=6144, out_features=6144, bias=True)
      (3): GELU(approximate='none')
      (4): Pred_Rearrange()
      (5): Linear(in_features=6144, out_features=16384, bias=True)
    )
  )
)
len(dict_root_dirs) 1
use_ddstore is : 0
len(dict_root_dirs) 1
rank  15 lister_train reset: mpi-esm 9 9 9
use_ddstore is : 0
len(dict_root_dirs) 1
use_ddstore is : 0
len(dict_root_dirs) 1
use_ddstore is : 0
len(dict_root_dirs) 1
use_ddstore is : 0
len(dict_root_dirs) 1
use_ddstore is : 0
len(dict_root_dirs) 1
use_ddstore is : 0
len(dict_root_dirs) 1
…
parameter name  head.0.bias  requires_gradient  True size torch.Size([6144])
parameter name  head.2.weight  requires_gradient  True size torch.Size([6144, 6144])
parameter name  head.2.bias  requires_gradient  True size torch.Size([6144])
parameter name  head.5.weight  requires_gradient  True size torch.Size([512, 6144])
parameter name  head.5.bias  requires_gradient  True size torch.Size([512])
total_params before FSDP tensor(245889536) params_per_gpu tensor(104239616)
total_params after FSDP FullyShardedDataParallel(
  (_fsdp_wrapped_module): ClimaX(
    (token_embeds): ModuleList(
      (0-31): 32 x PatchEmbed(
        (proj): Conv2d(1, 6144, kernel_size=(4, 4), stride=(4, 4))
        (norm): Identity()
      )
    )
    (var_agg): FullyShardedDataParallel(
      (_fsdp_wrapped_module): CheckpointWrapper(
        (_checkpoint_wrapped_module): VariableMapping_Attention(
          (q): Linear(in_features=6144, out_features=384, bias=False)
          (kv): Linear(in_features=6144, out_features=768, bias=False)
          (attn_drop): Dropout(p=0.0, inplace=False)
          (proj): Linear(in_features=384, out_features=6144, bias=True)
          (proj_drop): Dropout(p=0.0, inplace=False)
        )
      )
    )
    (lead_time_embed): Linear(in_features=1, out_features=6144, bias=True)
    (pos_drop): Dropout(p=0.1, inplace=False)
    (head): Sequential(
      (0): Linear(in_features=6144, out_features=6144, bias=True)
      (1): GELU(approximate='none')
      (2): Linear(in_features=6144, out_features=6144, bias=True)
      (3): GELU(approximate='none')
      (4): Pred_Rearrange()
      (5): Linear(in_features=6144, out_features=512, bias=True)
    )
  )
)
len(dict_root_dirs) 1
use_ddstore is : 0
len(dict_root_dirs) 1
rank  0 lister_train reset: mpi-esm 9 9 9
use_ddstore is : 0
len(dict_root_dirs) 1
use_ddstore is : 0
len(dict_root_dirs) 1
use_ddstore is : 0
len(dict_root_dirs) 1
use_ddstore is : 0
len(dict_root_dirs) 1
use_ddstore is : 0
len(dict_root_dirs) 1
use_ddstore is : 0
len(dict_root_dirs) 1
…
parameter name  head.0.bias  requires_gradient  True size torch.Size([6144])
parameter name  head.2.weight  requires_gradient  True size torch.Size([6144, 6144])
parameter name  head.2.bias  requires_gradient  True size torch.Size([6144])
parameter name  head.5.weight  requires_gradient  True size torch.Size([1024, 6144])
parameter name  head.5.bias  requires_gradient  True size torch.Size([1024])
total_params before FSDP tensor(252574720) params_per_gpu tensor(110924800)
total_params after FSDP FullyShardedDataParallel(
  (_fsdp_wrapped_module): ClimaX(
    (token_embeds): ModuleList(
      (0-63): 64 x PatchEmbed(
        (proj): Conv2d(1, 6144, kernel_size=(4, 4), stride=(4, 4))
        (norm): Identity()
      )
    )
    (var_agg): FullyShardedDataParallel(
      (_fsdp_wrapped_module): CheckpointWrapper(
        (_checkpoint_wrapped_module): VariableMapping_Attention(
          (q): Linear(in_features=6144, out_features=384, bias=False)
          (kv): Linear(in_features=6144, out_features=768, bias=False)
          (attn_drop): Dropout(p=0.0, inplace=False)
          (proj): Linear(in_features=384, out_features=6144, bias=True)
          (proj_drop): Dropout(p=0.0, inplace=False)
        )
      )
    )
    (lead_time_embed): Linear(in_features=1, out_features=6144, bias=True)
    (pos_drop): Dropout(p=0.1, inplace=False)
    (head): Sequential(
      (0): Linear(in_features=6144, out_features=6144, bias=True)
      (1): GELU(approximate='none')
      (2): Linear(in_features=6144, out_features=6144, bias=True)
      (3): GELU(approximate='none')
      (4): Pred_Rearrange()
      (5): Linear(in_features=6144, out_features=1024, bias=True)
    )
  )
)
len(dict_root_dirs) 1
use_ddstore is : 0
len(dict_root_dirs) 1
use_ddstore is : 0
len(dict_root_dirs) 1
use_ddstore is : 0
len(dict_root_dirs) 1
rank  0 lister_train reset: mpi-esm 9 9 9
use_ddstore is : 0
len(dict_root_dirs) 1
use_ddstore is : 0
len(dict_root_dirs) 1
use_ddstore is : 0
len(dict_root_dirs) 1
use_ddstore is : 0
len(dict_root_dirs) 1
…
parameter name  head.0.bias  requires_gradient  True size torch.Size([6144])
parameter name  head.2.weight  requires_gradient  True size torch.Size([6144, 6144])
parameter name  head.2.bias  requires_gradient  True size torch.Size([6144])
parameter name  head.5.weight  requires_gradient  True size torch.Size([2048, 6144])
parameter name  head.5.bias  requires_gradient  True size torch.Size([2048])
total_params before FSDP tensor(265945088) params_per_gpu tensor(124295168)
total_params after FSDP FullyShardedDataParallel(
  (_fsdp_wrapped_module): ClimaX(
    (token_embeds): ModuleList(
      (0-127): 128 x PatchEmbed(
        (proj): Conv2d(1, 6144, kernel_size=(4, 4), stride=(4, 4))
        (norm): Identity()
      )
    )
    (var_agg): FullyShardedDataParallel(
      (_fsdp_wrapped_module): CheckpointWrapper(
        (_checkpoint_wrapped_module): VariableMapping_Attention(
          (q): Linear(in_features=6144, out_features=384, bias=False)
          (kv): Linear(in_features=6144, out_features=768, bias=False)
          (attn_drop): Dropout(p=0.0, inplace=False)
          (proj): Linear(in_features=384, out_features=6144, bias=True)
          (proj_drop): Dropout(p=0.0, inplace=False)
        )
      )
    )
    (lead_time_embed): Linear(in_features=1, out_features=6144, bias=True)
    (pos_drop): Dropout(p=0.1, inplace=False)
    (head): Sequential(
      (0): Linear(in_features=6144, out_features=6144, bias=True)
      (1): GELU(approximate='none')
      (2): Linear(in_features=6144, out_features=6144, bias=True)
      (3): GELU(approximate='none')
      (4): Pred_Rearrange()
      (5): Linear(in_features=6144, out_features=2048, bias=True)
    )
  )
)
len(dict_root_dirs) 1
rank  0 lister_train reset: mpi-esm 9 9 9
use_ddstore is : 0
len(dict_root_dirs) 1
use_ddstore is : 0
len(dict_root_dirs) 1
use_ddstore is : 0
len(dict_root_dirs) 1
use_ddstore is : 0
len(dict_root_dirs) 1
use_ddstore is : 0
len(dict_root_dirs) 1
use_ddstore is : 0
len(dict_root_dirs) 1
use_ddstore is : 0
len(dict_root_dirs) 1
…
parameter name  head.0.bias  requires_gradient  True size torch.Size([6144])
parameter name  head.2.weight  requires_gradient  True size torch.Size([6144, 6144])
parameter name  head.2.bias  requires_gradient  True size torch.Size([6144])
parameter name  head.5.weight  requires_gradient  True size torch.Size([4096, 6144])
parameter name  head.5.bias  requires_gradient  True size torch.Size([4096])
total_params before FSDP tensor(292685824) params_per_gpu tensor(151035904)
total_params after FSDP FullyShardedDataParallel(
  (_fsdp_wrapped_module): ClimaX(
    (token_embeds): ModuleList(
      (0-255): 256 x PatchEmbed(
        (proj): Conv2d(1, 6144, kernel_size=(4, 4), stride=(4, 4))
        (norm): Identity()
      )
    )
    (var_agg): FullyShardedDataParallel(
      (_fsdp_wrapped_module): CheckpointWrapper(
        (_checkpoint_wrapped_module): VariableMapping_Attention(
          (q): Linear(in_features=6144, out_features=384, bias=False)
          (kv): Linear(in_features=6144, out_features=768, bias=False)
          (attn_drop): Dropout(p=0.0, inplace=False)
          (proj): Linear(in_features=384, out_features=6144, bias=True)
          (proj_drop): Dropout(p=0.0, inplace=False)
        )
      )
    )
    (lead_time_embed): Linear(in_features=1, out_features=6144, bias=True)
    (pos_drop): Dropout(p=0.1, inplace=False)
    (head): Sequential(
      (0): Linear(in_features=6144, out_features=6144, bias=True)
      (1): GELU(approximate='none')
      (2): Linear(in_features=6144, out_features=6144, bias=True)
      (3): GELU(approximate='none')
      (4): Pred_Rearrange()
      (5): Linear(in_features=6144, out_features=4096, bias=True)
    )
  )
)
len(dict_root_dirs) 1
use_ddstore is : 0
len(dict_root_dirs) 1
use_ddstore is : 0
len(dict_root_dirs) 1
use_ddstore is : 0
len(dict_root_dirs) 1
use_ddstore is : 0
len(dict_root_dirs) 1
use_ddstore is : 0
len(dict_root_dirs) 1
rank  15 lister_train reset: mpi-esm 9 9 9
use_ddstore is : 0
len(dict_root_dirs) 1
use_ddstore is : 0
len(dict_root_dirs) 1
…
parameter name  head.0.bias  requires_gradient  True size torch.Size([6144])
parameter name  head.2.weight  requires_gradient  True size torch.Size([6144, 6144])
parameter name  head.2.bias  requires_gradient  True size torch.Size([6144])
parameter name  head.5.weight  requires_gradient  True size torch.Size([8192, 6144])
parameter name  head.5.bias  requires_gradient  True size torch.Size([8192])
total_params before FSDP tensor(346167296) params_per_gpu tensor(204517376)
total_params after FSDP FullyShardedDataParallel(
  (_fsdp_wrapped_module): ClimaX(
    (token_embeds): ModuleList(
      (0-511): 512 x PatchEmbed(
        (proj): Conv2d(1, 6144, kernel_size=(4, 4), stride=(4, 4))
        (norm): Identity()
      )
    )
    (var_agg): FullyShardedDataParallel(
      (_fsdp_wrapped_module): CheckpointWrapper(
        (_checkpoint_wrapped_module): VariableMapping_Attention(
          (q): Linear(in_features=6144, out_features=384, bias=False)
          (kv): Linear(in_features=6144, out_features=768, bias=False)
          (attn_drop): Dropout(p=0.0, inplace=False)
          (proj): Linear(in_features=384, out_features=6144, bias=True)
          (proj_drop): Dropout(p=0.0, inplace=False)
        )
      )
    )
    (lead_time_embed): Linear(in_features=1, out_features=6144, bias=True)
    (pos_drop): Dropout(p=0.1, inplace=False)
    (head): Sequential(
      (0): Linear(in_features=6144, out_features=6144, bias=True)
      (1): GELU(approximate='none')
      (2): Linear(in_features=6144, out_features=6144, bias=True)
      (3): GELU(approximate='none')
      (4): Pred_Rearrange()
      (5): Linear(in_features=6144, out_features=8192, bias=True)
    )
  )
)
len(dict_root_dirs) 1
use_ddstore is : 0
len(dict_root_dirs) 1
use_ddstore is : 0
len(dict_root_dirs) 1
use_ddstore is : 0
len(dict_root_dirs) 1
use_ddstore is : 0
len(dict_root_dirs) 1
use_ddstore is : 0
len(dict_root_dirs) 1
use_ddstore is : 0
len(dict_root_dirs) 1
use_ddstore is : 0
len(dict_root_dirs) 1
use_ddstore is : 0
len(dict_root_dirs) 1
…
parameter name  head.0.bias  requires_gradient  True size torch.Size([6144])
parameter name  head.2.weight  requires_gradient  True size torch.Size([6144, 6144])
parameter name  head.2.bias  requires_gradient  True size torch.Size([6144])
parameter name  head.5.weight  requires_gradient  True size torch.Size([12288, 6144])
parameter name  head.5.bias  requires_gradient  True size torch.Size([12288])
total_params before FSDP tensor(399648768) params_per_gpu tensor(257998848)
total_params after FSDP FullyShardedDataParallel(
  (_fsdp_wrapped_module): ClimaX(
    (token_embeds): ModuleList(
      (0-767): 768 x PatchEmbed(
        (proj): Conv2d(1, 6144, kernel_size=(4, 4), stride=(4, 4))
        (norm): Identity()
      )
    )
    (var_agg): FullyShardedDataParallel(
      (_fsdp_wrapped_module): CheckpointWrapper(
        (_checkpoint_wrapped_module): VariableMapping_Attention(
          (q): Linear(in_features=6144, out_features=384, bias=False)
          (kv): Linear(in_features=6144, out_features=768, bias=False)
          (attn_drop): Dropout(p=0.0, inplace=False)
          (proj): Linear(in_features=384, out_features=6144, bias=True)
          (proj_drop): Dropout(p=0.0, inplace=False)
        )
      )
    )
    (lead_time_embed): Linear(in_features=1, out_features=6144, bias=True)
    (pos_drop): Dropout(p=0.1, inplace=False)
    (head): Sequential(
      (0): Linear(in_features=6144, out_features=6144, bias=True)
      (1): GELU(approximate='none')
      (2): Linear(in_features=6144, out_features=6144, bias=True)
      (3): GELU(approximate='none')
      (4): Pred_Rearrange()
      (5): Linear(in_features=6144, out_features=12288, bias=True)
    )
  )
)
len(dict_root_dirs) 1
use_ddstore is : 0
len(dict_root_dirs) 1
use_ddstore is : 0
len(dict_root_dirs) 1
use_ddstore is : 0
len(dict_root_dirs) 1
use_ddstore is : 0
len(dict_root_dirs) 1
use_ddstore is : 0
len(dict_root_dirs) 1
use_ddstore is : 0
len(dict_root_dirs) 1
rank  15 lister_train reset: mpi-esm 9 9 9
use_ddstore is : 0
len(dict_root_dirs) 1
…
parameter name  head.0.bias  requires_gradient  True size torch.Size([6144])
parameter name  head.2.weight  requires_gradient  True size torch.Size([6144, 6144])
parameter name  head.2.bias  requires_gradient  True size torch.Size([6144])
parameter name  head.5.weight  requires_gradient  True size torch.Size([16384, 6144])
parameter name  head.5.bias  requires_gradient  True size torch.Size([16384])
total_params before FSDP tensor(453130240) params_per_gpu tensor(311480320)
total_params after FSDP FullyShardedDataParallel(
  (_fsdp_wrapped_module): ClimaX(
    (token_embeds): ModuleList(
      (0-1023): 1024 x PatchEmbed(
        (proj): Conv2d(1, 6144, kernel_size=(4, 4), stride=(4, 4))
        (norm): Identity()
      )
    )
    (var_agg): FullyShardedDataParallel(
      (_fsdp_wrapped_module): CheckpointWrapper(
        (_checkpoint_wrapped_module): VariableMapping_Attention(
          (q): Linear(in_features=6144, out_features=384, bias=False)
          (kv): Linear(in_features=6144, out_features=768, bias=False)
          (attn_drop): Dropout(p=0.0, inplace=False)
          (proj): Linear(in_features=384, out_features=6144, bias=True)
          (proj_drop): Dropout(p=0.0, inplace=False)
        )
      )
    )
    (lead_time_embed): Linear(in_features=1, out_features=6144, bias=True)
    (pos_drop): Dropout(p=0.1, inplace=False)
    (head): Sequential(
      (0): Linear(in_features=6144, out_features=6144, bias=True)
      (1): GELU(approximate='none')
      (2): Linear(in_features=6144, out_features=6144, bias=True)
      (3): GELU(approximate='none')
      (4): Pred_Rearrange()
      (5): Linear(in_features=6144, out_features=16384, bias=True)
    )
  )
)
len(dict_root_dirs) 1
use_ddstore is : 0
len(dict_root_dirs) 1
use_ddstore is : 0
len(dict_root_dirs) 1
use_ddstore is : 0
len(dict_root_dirs) 1
use_ddstore is : 0
len(dict_root_dirs) 1
use_ddstore is : 0
len(dict_root_dirs) 1
use_ddstore is : 0
len(dict_root_dirs) 1
rank  15 lister_train reset: mpi-esm 9 9 9
use_ddstore is : 0
len(dict_root_dirs) 1
…
parameter name  head.0.bias  requires_gradient  True size torch.Size([6144])
parameter name  head.2.weight  requires_gradient  True size torch.Size([6144, 6144])
parameter name  head.2.bias  requires_gradient  True size torch.Size([6144])
parameter name  head.5.weight  requires_gradient  True size torch.Size([512, 6144])
parameter name  head.5.bias  requires_gradient  True size torch.Size([512])
total_params before FSDP tensor(14749870592) params_per_gpu tensor(1011487232)
total_params after FSDP FullyShardedDataParallel(
  (_fsdp_wrapped_module): ClimaX(
    (token_embeds): ModuleList(
      (0-31): 32 x PatchEmbed(
        (proj): Conv2d(1, 6144, kernel_size=(4, 4), stride=(4, 4))
        (norm): Identity()
      )
    )
    (var_agg): FullyShardedDataParallel(
      (_fsdp_wrapped_module): CheckpointWrapper(
        (_checkpoint_wrapped_module): VariableMapping_Attention(
          (q): Linear(in_features=6144, out_features=384, bias=False)
          (kv): Linear(in_features=6144, out_features=768, bias=False)
          (attn_drop): Dropout(p=0.0, inplace=False)
          (proj): Linear(in_features=384, out_features=6144, bias=True)
          (proj_drop): Dropout(p=0.0, inplace=False)
        )
      )
    )
    (lead_time_embed): Linear(in_features=1, out_features=6144, bias=True)
    (pos_drop): Dropout(p=0.1, inplace=False)
    (blocks): ModuleList(
      (0-31): 32 x FullyShardedDataParallel(
        (_fsdp_wrapped_module): CheckpointWrapper(
          (_checkpoint_wrapped_module): Block(
            (norm1): LayerNorm((6144,), eps=1e-05, elementwise_affine=True)
            (attn): Attention(
              (qkv): Linear(in_features=6144, out_features=1152, bias=True)
              (attn_drop): Dropout(p=0.0, inplace=False)
              (proj): Linear(in_features=384, out_features=6144, bias=True)
              (proj_drop): Dropout(p=0.1, inplace=False)
            )
            (ls1): Identity()
            (norm2): LayerNorm((6144,), eps=1e-05, elementwise_affine=True)
            (mlp): Mlp(
              (fc1): Linear(in_features=6144, out_features=1536, bias=True)
              (act): GELU(approximate='none')
              (drop1): Dropout(p=0.1, inplace=False)
              (fc2): Linear(in_features=1536, out_features=6144, bias=True)
            )
            (ls2): Identity()
          )
        )
      )
    )
    (norm): LayerNorm((6144,), eps=1e-05, elementwise_affine=True)
    (head): Sequential(
      (0): Linear(in_features=6144, out_features=6144, bias=True)
      (1): GELU(approximate='none')
      (2): Linear(in_features=6144, out_features=6144, bias=True)
      (3): GELU(approximate='none')
      (4): Pred_Rearrange()
      (5): Linear(in_features=6144, out_features=512, bias=True)
    )
  )
)
len(dict_root_dirs) 1
use_ddstore is : 0
len(dict_root_dirs) 1
use_ddstore is : 0
len(dict_root_dirs) 1
use_ddstore is : 0
len(dict_root_dirs) 1
use_ddstore is : 0
len(dict_root_dirs) 1
rank  0 lister_train reset: mpi-esm 9 9 9
use_ddstore is : 0
len(dict_root_dirs) 1
use_ddstore is : 0
len(dict_root_dirs) 1
use_ddstore is : 0
len(dict_root_dirs) 1
…
parameter name  head.0.bias  requires_gradient  True size torch.Size([6144])
parameter name  head.2.weight  requires_gradient  True size torch.Size([6144, 6144])
parameter name  head.2.bias  requires_gradient  True size torch.Size([6144])
parameter name  head.5.weight  requires_gradient  True size torch.Size([1024, 6144])
parameter name  head.5.bias  requires_gradient  True size torch.Size([1024])
total_params before FSDP tensor(14756555776) params_per_gpu tensor(1018172416)
total_params after FSDP FullyShardedDataParallel(
  (_fsdp_wrapped_module): ClimaX(
    (token_embeds): ModuleList(
      (0-63): 64 x PatchEmbed(
        (proj): Conv2d(1, 6144, kernel_size=(4, 4), stride=(4, 4))
        (norm): Identity()
      )
    )
    (var_agg): FullyShardedDataParallel(
      (_fsdp_wrapped_module): CheckpointWrapper(
        (_checkpoint_wrapped_module): VariableMapping_Attention(
          (q): Linear(in_features=6144, out_features=384, bias=False)
          (kv): Linear(in_features=6144, out_features=768, bias=False)
          (attn_drop): Dropout(p=0.0, inplace=False)
          (proj): Linear(in_features=384, out_features=6144, bias=True)
          (proj_drop): Dropout(p=0.0, inplace=False)
        )
      )
    )
    (lead_time_embed): Linear(in_features=1, out_features=6144, bias=True)
    (pos_drop): Dropout(p=0.1, inplace=False)
    (blocks): ModuleList(
      (0-31): 32 x FullyShardedDataParallel(
        (_fsdp_wrapped_module): CheckpointWrapper(
          (_checkpoint_wrapped_module): Block(
            (norm1): LayerNorm((6144,), eps=1e-05, elementwise_affine=True)
            (attn): Attention(
              (qkv): Linear(in_features=6144, out_features=1152, bias=True)
              (attn_drop): Dropout(p=0.0, inplace=False)
              (proj): Linear(in_features=384, out_features=6144, bias=True)
              (proj_drop): Dropout(p=0.1, inplace=False)
            )
            (ls1): Identity()
            (norm2): LayerNorm((6144,), eps=1e-05, elementwise_affine=True)
            (mlp): Mlp(
              (fc1): Linear(in_features=6144, out_features=1536, bias=True)
              (act): GELU(approximate='none')
              (drop1): Dropout(p=0.1, inplace=False)
              (fc2): Linear(in_features=1536, out_features=6144, bias=True)
            )
            (ls2): Identity()
          )
        )
      )
    )
    (norm): LayerNorm((6144,), eps=1e-05, elementwise_affine=True)
    (head): Sequential(
      (0): Linear(in_features=6144, out_features=6144, bias=True)
      (1): GELU(approximate='none')
      (2): Linear(in_features=6144, out_features=6144, bias=True)
      (3): GELU(approximate='none')
      (4): Pred_Rearrange()
      (5): Linear(in_features=6144, out_features=1024, bias=True)
    )
  )
)
len(dict_root_dirs) 1
rank  0 lister_train reset: mpi-esm 9 9 9
use_ddstore is : 0
len(dict_root_dirs) 1
use_ddstore is : 0
len(dict_root_dirs) 1
use_ddstore is : 0
len(dict_root_dirs) 1
use_ddstore is : 0
len(dict_root_dirs) 1
use_ddstore is : 0
len(dict_root_dirs) 1
use_ddstore is : 0
len(dict_root_dirs) 1
use_ddstore is : 0
len(dict_root_dirs) 1
…
parameter name  head.0.bias  requires_gradient  True size torch.Size([6144])
parameter name  head.2.weight  requires_gradient  True size torch.Size([6144, 6144])
parameter name  head.2.bias  requires_gradient  True size torch.Size([6144])
parameter name  head.5.weight  requires_gradient  True size torch.Size([2048, 6144])
parameter name  head.5.bias  requires_gradient  True size torch.Size([2048])
total_params before FSDP tensor(14769926144) params_per_gpu tensor(1031542784)
total_params after FSDP FullyShardedDataParallel(
  (_fsdp_wrapped_module): ClimaX(
    (token_embeds): ModuleList(
      (0-127): 128 x PatchEmbed(
        (proj): Conv2d(1, 6144, kernel_size=(4, 4), stride=(4, 4))
        (norm): Identity()
      )
    )
    (var_agg): FullyShardedDataParallel(
      (_fsdp_wrapped_module): CheckpointWrapper(
        (_checkpoint_wrapped_module): VariableMapping_Attention(
          (q): Linear(in_features=6144, out_features=384, bias=False)
          (kv): Linear(in_features=6144, out_features=768, bias=False)
          (attn_drop): Dropout(p=0.0, inplace=False)
          (proj): Linear(in_features=384, out_features=6144, bias=True)
          (proj_drop): Dropout(p=0.0, inplace=False)
        )
      )
    )
    (lead_time_embed): Linear(in_features=1, out_features=6144, bias=True)
    (pos_drop): Dropout(p=0.1, inplace=False)
    (blocks): ModuleList(
      (0-31): 32 x FullyShardedDataParallel(
        (_fsdp_wrapped_module): CheckpointWrapper(
          (_checkpoint_wrapped_module): Block(
            (norm1): LayerNorm((6144,), eps=1e-05, elementwise_affine=True)
            (attn): Attention(
              (qkv): Linear(in_features=6144, out_features=1152, bias=True)
              (attn_drop): Dropout(p=0.0, inplace=False)
              (proj): Linear(in_features=384, out_features=6144, bias=True)
              (proj_drop): Dropout(p=0.1, inplace=False)
            )
            (ls1): Identity()
            (norm2): LayerNorm((6144,), eps=1e-05, elementwise_affine=True)
            (mlp): Mlp(
              (fc1): Linear(in_features=6144, out_features=1536, bias=True)
              (act): GELU(approximate='none')
              (drop1): Dropout(p=0.1, inplace=False)
              (fc2): Linear(in_features=1536, out_features=6144, bias=True)
            )
            (ls2): Identity()
          )
        )
      )
    )
    (norm): LayerNorm((6144,), eps=1e-05, elementwise_affine=True)
    (head): Sequential(
      (0): Linear(in_features=6144, out_features=6144, bias=True)
      (1): GELU(approximate='none')
      (2): Linear(in_features=6144, out_features=6144, bias=True)
      (3): GELU(approximate='none')
      (4): Pred_Rearrange()
      (5): Linear(in_features=6144, out_features=2048, bias=True)
    )
  )
)
len(dict_root_dirs) 1
use_ddstore is : 0
len(dict_root_dirs) 1
use_ddstore is : 0
len(dict_root_dirs) 1
use_ddstore is : 0
len(dict_root_dirs) 1
use_ddstore is : 0
len(dict_root_dirs) 1
use_ddstore is : 0
len(dict_root_dirs) 1
use_ddstore is : 0
len(dict_root_dirs) 1
rank  15 lister_train reset: mpi-esm 9 9 9
use_ddstore is : 0
len(dict_root_dirs) 1
…
parameter name  head.0.bias  requires_gradient  True size torch.Size([6144])
parameter name  head.2.weight  requires_gradient  True size torch.Size([6144, 6144])
parameter name  head.2.bias  requires_gradient  True size torch.Size([6144])
parameter name  head.5.weight  requires_gradient  True size torch.Size([4096, 6144])
parameter name  head.5.bias  requires_gradient  True size torch.Size([4096])
total_params before FSDP tensor(14796666880) params_per_gpu tensor(1058283520)
total_params after FSDP FullyShardedDataParallel(
  (_fsdp_wrapped_module): ClimaX(
    (token_embeds): ModuleList(
      (0-255): 256 x PatchEmbed(
        (proj): Conv2d(1, 6144, kernel_size=(4, 4), stride=(4, 4))
        (norm): Identity()
      )
    )
    (var_agg): FullyShardedDataParallel(
      (_fsdp_wrapped_module): CheckpointWrapper(
        (_checkpoint_wrapped_module): VariableMapping_Attention(
          (q): Linear(in_features=6144, out_features=384, bias=False)
          (kv): Linear(in_features=6144, out_features=768, bias=False)
          (attn_drop): Dropout(p=0.0, inplace=False)
          (proj): Linear(in_features=384, out_features=6144, bias=True)
          (proj_drop): Dropout(p=0.0, inplace=False)
        )
      )
    )
    (lead_time_embed): Linear(in_features=1, out_features=6144, bias=True)
    (pos_drop): Dropout(p=0.1, inplace=False)
    (blocks): ModuleList(
      (0-31): 32 x FullyShardedDataParallel(
        (_fsdp_wrapped_module): CheckpointWrapper(
          (_checkpoint_wrapped_module): Block(
            (norm1): LayerNorm((6144,), eps=1e-05, elementwise_affine=True)
            (attn): Attention(
              (qkv): Linear(in_features=6144, out_features=1152, bias=True)
              (attn_drop): Dropout(p=0.0, inplace=False)
              (proj): Linear(in_features=384, out_features=6144, bias=True)
              (proj_drop): Dropout(p=0.1, inplace=False)
            )
            (ls1): Identity()
            (norm2): LayerNorm((6144,), eps=1e-05, elementwise_affine=True)
            (mlp): Mlp(
              (fc1): Linear(in_features=6144, out_features=1536, bias=True)
              (act): GELU(approximate='none')
              (drop1): Dropout(p=0.1, inplace=False)
              (fc2): Linear(in_features=1536, out_features=6144, bias=True)
            )
            (ls2): Identity()
          )
        )
      )
    )
    (norm): LayerNorm((6144,), eps=1e-05, elementwise_affine=True)
    (head): Sequential(
      (0): Linear(in_features=6144, out_features=6144, bias=True)
      (1): GELU(approximate='none')
      (2): Linear(in_features=6144, out_features=6144, bias=True)
      (3): GELU(approximate='none')
      (4): Pred_Rearrange()
      (5): Linear(in_features=6144, out_features=4096, bias=True)
    )
  )
)
len(dict_root_dirs) 1
use_ddstore is : 0
len(dict_root_dirs) 1
use_ddstore is : 0
len(dict_root_dirs) 1
use_ddstore is : 0
len(dict_root_dirs) 1
use_ddstore is : 0
len(dict_root_dirs) 1
use_ddstore is : 0
len(dict_root_dirs) 1
use_ddstore is : 0
len(dict_root_dirs) 1
use_ddstore is : 0
len(dict_root_dirs) 1
use_ddstore is : 0
len(dict_root_dirs) 1
…
