…
parameter name  decoder_blocks.1.mlp.fc2.bias  requires_gradient  True size torch.Size([128])
parameter name  decoder_norm.weight  requires_gradient  True size torch.Size([128])
parameter name  decoder_norm.bias  requires_gradient  True size torch.Size([128])
parameter name  decoder_pred.weight  requires_gradient  True size torch.Size([17856, 128])
parameter name  decoder_pred.bias  requires_gradient  True size torch.Size([17856])
total_params before FSDP tensor(6601031353) params_per_gpu tensor(3345130937)
total_params after FSDP FullyShardedDataParallel(
  (_fsdp_wrapped_module): ClimaX(
    (token_embeds): ModuleList(
      (0-495): 496 x PatchEmbed(
        (proj): Conv2d(1, 4096, kernel_size=(6, 6), stride=(6, 6))
        (norm): Identity()
      )
    )
    (var_agg): FullyShardedDataParallel(
      (_fsdp_wrapped_module): CheckpointWrapper(
        (_checkpoint_wrapped_module): VariableMapping_Attention(
          (q): Linear(in_features=4096, out_features=2048, bias=False)
          (kv): Linear(in_features=4096, out_features=4096, bias=False)
          (attn_drop): Dropout(p=0.0, inplace=False)
          (proj): Linear(in_features=2048, out_features=4096, bias=True)
          (proj_drop): Dropout(p=0.0, inplace=False)
        )
      )
    )
    (var_linear_per_rank): Linear(in_features=248, out_features=1, bias=True)
    (lead_time_embed): Linear(in_features=1, out_features=4096, bias=True)
    (pos_drop): Dropout(p=0.1, inplace=False)
    (blocks): ModuleList(
      (0-31): 32 x FullyShardedDataParallel(
        (_fsdp_wrapped_module): CheckpointWrapper(
          (_checkpoint_wrapped_module): Block(
            (norm1): LayerNorm((4096,), eps=1e-05, elementwise_affine=True)
            (attn): Attention(
              (qkv): Linear(in_features=4096, out_features=6144, bias=True)
              (attn_drop): Dropout(p=0.0, inplace=False)
              (proj): Linear(in_features=2048, out_features=4096, bias=True)
              (proj_drop): Dropout(p=0.0, inplace=False)
            )
            (ls1): Identity()
            (norm2): LayerNorm((4096,), eps=1e-05, elementwise_affine=True)
            (mlp): Mlp(
              (fc1): Linear(in_features=4096, out_features=8192, bias=True)
              (act): GELU(approximate='none')
              (drop1): Dropout(p=0.0, inplace=False)
              (fc2): Linear(in_features=8192, out_features=4096, bias=True)
            )
            (ls2): Identity()
          )
        )
      )
    )
    (norm): LayerNorm((4096,), eps=1e-05, elementwise_affine=True)
    (decoder_embed): Linear(in_features=4096, out_features=128, bias=True)
    (decoder_blocks): ModuleList(
      (0-1): 2 x FullyShardedDataParallel(
        (_fsdp_wrapped_module): CheckpointWrapper(
          (_checkpoint_wrapped_module): Block(
            (norm1): LayerNorm((128,), eps=1e-05, elementwise_affine=True)
            (attn): Attention(
              (qkv): Linear(in_features=128, out_features=384, bias=True)
              (attn_drop): Dropout(p=0.0, inplace=False)
              (proj): Linear(in_features=128, out_features=128, bias=True)
              (proj_drop): Dropout(p=0.0, inplace=False)
            )
            (ls1): Identity()
            (norm2): LayerNorm((128,), eps=1e-05, elementwise_affine=True)
            (mlp): Mlp(
              (fc1): Linear(in_features=128, out_features=512, bias=True)
              (act): GELU(approximate='none')
              (drop1): Dropout(p=0.0, inplace=False)
              (fc2): Linear(in_features=512, out_features=128, bias=True)
            )
            (ls2): Identity()
          )
        )
      )
    )
    (decoder_norm): LayerNorm((128,), eps=1e-05, elementwise_affine=True)
    (decoder_pred): Linear(in_features=128, out_features=17856, bias=True)
  )
)
memory stats reset, ready to track
/lustre/orion/world-shared/stf218/atsaris/DEEPCAM_2022/new_env/miniconda/env_rocm/lib/python3.8/site-packages/torchvision-0.18.0a0+4c0f441-py3.8-linux-x86_64.egg/torchvision/io/image.py:13: UserWarning: Failed to load image Python extension: ''If you don't plan on using image functionality from `torchvision.io`, you can ignore this warning. Otherwise, there might be something wrong with your environment. Did you have `libjpeg` or `libpng` installed before building `torchvision` from source?
…
