…
parameter name  head.0.bias  requires_gradient  True size torch.Size([2048])
parameter name  head.2.weight  requires_gradient  True size torch.Size([2048, 2048])
parameter name  head.2.bias  requires_gradient  True size torch.Size([2048])
parameter name  head.5.weight  requires_gradient  True size torch.Size([16384, 2048])
parameter name  head.5.bias  requires_gradient  True size torch.Size([16384])
total_params before FSDP tensor(1713092608) params_per_gpu tensor(287793152)
total_params after FSDP FullyShardedDataParallel(
  (_fsdp_wrapped_module): ClimaX(
    (token_embeds): ModuleList(
      (0-1023): 1024 x PatchEmbed(
        (proj): Conv2d(1, 2048, kernel_size=(4, 4), stride=(4, 4))
        (norm): Identity()
      )
    )
    (var_agg): FullyShardedDataParallel(
      (_fsdp_wrapped_module): CheckpointWrapper(
        (_checkpoint_wrapped_module): VariableMapping_Attention(
          (q): Linear(in_features=2048, out_features=256, bias=False)
          (kv): Linear(in_features=2048, out_features=512, bias=False)
          (attn_drop): Dropout(p=0.0, inplace=False)
          (proj): Linear(in_features=256, out_features=2048, bias=True)
          (proj_drop): Dropout(p=0.0, inplace=False)
        )
      )
    )
    (lead_time_embed): Linear(in_features=1, out_features=2048, bias=True)
    (pos_drop): Dropout(p=0.1, inplace=False)
    (blocks): ModuleList(
      (0-31): 32 x FullyShardedDataParallel(
        (_fsdp_wrapped_module): CheckpointWrapper(
          (_checkpoint_wrapped_module): Block(
            (norm1): LayerNorm((2048,), eps=1e-05, elementwise_affine=True)
            (attn): Attention(
              (qkv): Linear(in_features=2048, out_features=768, bias=True)
              (attn_drop): Dropout(p=0.0, inplace=False)
              (proj): Linear(in_features=256, out_features=2048, bias=True)
              (proj_drop): Dropout(p=0.1, inplace=False)
            )
            (ls1): Identity()
            (norm2): LayerNorm((2048,), eps=1e-05, elementwise_affine=True)
            (mlp): Mlp(
              (fc1): Linear(in_features=2048, out_features=1024, bias=True)
              (act): GELU(approximate='none')
              (drop1): Dropout(p=0.1, inplace=False)
              (fc2): Linear(in_features=1024, out_features=2048, bias=True)
            )
            (ls2): Identity()
          )
        )
      )
    )
    (norm): LayerNorm((2048,), eps=1e-05, elementwise_affine=True)
    (head): Sequential(
      (0): Linear(in_features=2048, out_features=2048, bias=True)
      (1): GELU(approximate='none')
      (2): Linear(in_features=2048, out_features=2048, bias=True)
      (3): GELU(approximate='none')
      (4): Pred_Rearrange()
      (5): Linear(in_features=2048, out_features=16384, bias=True)
    )
  )
)
len(dict_root_dirs) 1
rank  7 lister_train reset: mpi-esm 9 9 9
rank  7 lister_test reset: mpi-esm 9 9 9
use_ddstore is : 0
use_ddstore is : 0
len(dict_root_dirs) 1
use_ddstore is : 0
use_ddstore is : 0
len(dict_root_dirs) 1
use_ddstore is : 0
use_ddstore is : 0
len(dict_root_dirs) 1
use_ddstore is : 0
use_ddstore is : 0
len(dict_root_dirs) 1
…
parameter name  head.2.weight  requires_gradient  True size torch.Size([2048, 2048])
parameter name  head.2.bias  requires_gradient  True size torch.Size([2048])
parameter name  head.5.weight  requires_gradient  True size torch.Size([16384, 2048])
parameter name  head.5.bias  requires_gradient  True size torch.Size([16384])
total_params before FSDP tensor(83910656) params_per_gpu tensor(83910656)
len(dict_root_dirs) 1
use_ddstore is : 0
use_ddstore is : 0
total_params after FSDP FullyShardedDataParallel(
  (_fsdp_wrapped_module): ClimaX(
    (token_embeds): ModuleList(
      (0-1023): 1024 x PatchEmbed(
        (proj): Conv2d(1, 2048, kernel_size=(4, 4), stride=(4, 4))
        (norm): Identity()
      )
    )
    (lead_time_embed): Linear(in_features=1, out_features=2048, bias=True)
    (pos_drop): Dropout(p=0.1, inplace=False)
    (head): Sequential(
      (0): Linear(in_features=2048, out_features=2048, bias=True)
      (1): GELU(approximate='none')
      (2): Linear(in_features=2048, out_features=2048, bias=True)
      (3): GELU(approximate='none')
      (4): Pred_Rearrange()
      (5): Linear(in_features=2048, out_features=16384, bias=True)
    )
  )
)
len(dict_root_dirs) 1
use_ddstore is : 0
len(dict_root_dirs) 1
rank  7 lister_train reset: mpi-esm 9 9 9
rank  7 lister_test reset: mpi-esm 9 9 9
use_ddstore is : 0
use_ddstore is : 0
use_ddstore is : 0
len(dict_root_dirs) 1
use_ddstore is : 0
use_ddstore is : 0
len(dict_root_dirs) 1
use_ddstore is : 0
use_ddstore is : 0
len(dict_root_dirs) 1
…
parameter name  head.0.bias  requires_gradient  True size torch.Size([2048])
parameter name  head.2.weight  requires_gradient  True size torch.Size([2048, 2048])
parameter name  head.2.bias  requires_gradient  True size torch.Size([2048])
parameter name  head.5.weight  requires_gradient  True size torch.Size([16384, 2048])
parameter name  head.5.bias  requires_gradient  True size torch.Size([16384])
total_params before FSDP tensor(100706304) params_per_gpu tensor(86011904)
total_params after FSDP FullyShardedDataParallel(
  (_fsdp_wrapped_module): ClimaX(
    (token_embeds): ModuleList(
      (0-1023): 1024 x PatchEmbed(
        (proj): Conv2d(1, 2048, kernel_size=(4, 4), stride=(4, 4))
        (norm): Identity()
      )
    )
    (var_agg): FullyShardedDataParallel(
      (_fsdp_wrapped_module): CheckpointWrapper(
        (_checkpoint_wrapped_module): VariableMapping_Attention(
          (q): Linear(in_features=2048, out_features=256, bias=False)
          (kv): Linear(in_features=2048, out_features=512, bias=False)
          (attn_drop): Dropout(p=0.0, inplace=False)
          (proj): Linear(in_features=256, out_features=2048, bias=True)
          (proj_drop): Dropout(p=0.0, inplace=False)
        )
      )
    )
    (lead_time_embed): Linear(in_features=1, out_features=2048, bias=True)
    (pos_drop): Dropout(p=0.1, inplace=False)
    (head): Sequential(
      (0): Linear(in_features=2048, out_features=2048, bias=True)
      (1): GELU(approximate='none')
      (2): Linear(in_features=2048, out_features=2048, bias=True)
      (3): GELU(approximate='none')
      (4): Pred_Rearrange()
      (5): Linear(in_features=2048, out_features=16384, bias=True)
    )
  )
)
len(dict_root_dirs) 1
use_ddstore is : 0
len(dict_root_dirs) 1
rank  7 lister_train reset: mpi-esm 9 9 9
rank  7 lister_test reset: mpi-esm 9 9 9
use_ddstore is : 0
use_ddstore is : 0
use_ddstore is : 0
len(dict_root_dirs) 1
use_ddstore is : 0
use_ddstore is : 0
len(dict_root_dirs) 1
use_ddstore is : 0
use_ddstore is : 0
len(dict_root_dirs) 1
…
parameter name  head.5.weight  requires_gradient  True size torch.Size([16384, 2048])
parameter name  head.5.bias  requires_gradient  True size torch.Size([16384])
total_params before FSDP tensor(234942464) params_per_gpu tensor(102793216)
len(dict_root_dirs) 1
rank  7 lister_train reset: mpi-esm 9 9 9
rank  7 lister_test reset: mpi-esm 9 9 9
use_ddstore is : 0
len(dict_root_dirs) 1
use_ddstore is : 0
use_ddstore is : 0
use_ddstore is : 0
len(dict_root_dirs) 1
use_ddstore is : 0
use_ddstore is : 0
total_params after FSDP FullyShardedDataParallel(
  (_fsdp_wrapped_module): ClimaX(
    (token_embeds): ModuleList(
      (0-1023): 1024 x PatchEmbed(
        (proj): Conv2d(1, 2048, kernel_size=(4, 4), stride=(4, 4))
        (norm): Identity()
      )
    )
    (var_agg): FullyShardedDataParallel(
      (_fsdp_wrapped_module): CheckpointWrapper(
        (_checkpoint_wrapped_module): VariableMapping_Attention(
          (q): Linear(in_features=2048, out_features=256, bias=False)
          (kv): Linear(in_features=2048, out_features=512, bias=False)
          (attn_drop): Dropout(p=0.0, inplace=False)
          (proj): Linear(in_features=256, out_features=2048, bias=True)
          (proj_drop): Dropout(p=0.0, inplace=False)
        )
      )
    )
    (var_agg_per_rank): CustomCrossAttention(
      (q): Linear(in_features=2048, out_features=2048, bias=False)
      (kv): Linear(in_features=2048, out_features=4096, bias=False)
      (attn_drop): Dropout(p=0.0, inplace=False)
      (proj): Linear(in_features=2048, out_features=2048, bias=True)
      (proj_drop): Dropout(p=0.0, inplace=False)
    )
    (lead_time_embed): Linear(in_features=1, out_features=2048, bias=True)
    (pos_drop): Dropout(p=0.1, inplace=False)
    (head): Sequential(
      (0): Linear(in_features=2048, out_features=2048, bias=True)
      (1): GELU(approximate='none')
      (2): Linear(in_features=2048, out_features=2048, bias=True)
      (3): GELU(approximate='none')
      (4): Pred_Rearrange()
      (5): Linear(in_features=2048, out_features=16384, bias=True)
    )
  )
)
len(dict_root_dirs) 1
use_ddstore is : 0
use_ddstore is : 0
len(dict_root_dirs) 1
use_ddstore is : 0
use_ddstore is : 0
len(dict_root_dirs) 1
use_ddstore is : 0
use_ddstore is : 0
len(dict_root_dirs) 1
use_ddstore is : 0
use_ddstore is : 0
len(dict_root_dirs) 1
rank  0 lister_train reset: mpi-esm 9 9 9
rank  0 lister_test reset: mpi-esm 9 9 9
…
parameter name  head.0.bias  requires_gradient  True size torch.Size([2048])
parameter name  head.2.weight  requires_gradient  True size torch.Size([2048, 2048])
parameter name  head.2.bias  requires_gradient  True size torch.Size([2048])
parameter name  head.5.weight  requires_gradient  True size torch.Size([16384, 2048])
parameter name  head.5.bias  requires_gradient  True size torch.Size([16384])
total_params before FSDP tensor(1713094785) params_per_gpu tensor(287795329)
total_params after FSDP FullyShardedDataParallel(
  (_fsdp_wrapped_module): ClimaX(
    (token_embeds): ModuleList(
      (0-1023): 1024 x PatchEmbed(
        (proj): Conv2d(1, 2048, kernel_size=(4, 4), stride=(4, 4))
        (norm): Identity()
      )
    )
    (var_agg): FullyShardedDataParallel(
      (_fsdp_wrapped_module): CheckpointWrapper(
        (_checkpoint_wrapped_module): VariableMapping_Attention(
          (q): Linear(in_features=2048, out_features=256, bias=False)
          (kv): Linear(in_features=2048, out_features=512, bias=False)
          (attn_drop): Dropout(p=0.0, inplace=False)
          (proj): Linear(in_features=256, out_features=2048, bias=True)
          (proj_drop): Dropout(p=0.0, inplace=False)
        )
      )
    )
    (var_linear_per_rank): Linear(in_features=128, out_features=1, bias=True)
    (lead_time_embed): Linear(in_features=1, out_features=2048, bias=True)
    (pos_drop): Dropout(p=0.1, inplace=False)
    (blocks): ModuleList(
      (0-31): 32 x FullyShardedDataParallel(
        (_fsdp_wrapped_module): CheckpointWrapper(
          (_checkpoint_wrapped_module): Block(
            (norm1): LayerNorm((2048,), eps=1e-05, elementwise_affine=True)
            (attn): Attention(
              (qkv): Linear(in_features=2048, out_features=768, bias=True)
              (attn_drop): Dropout(p=0.0, inplace=False)
              (proj): Linear(in_features=256, out_features=2048, bias=True)
              (proj_drop): Dropout(p=0.1, inplace=False)
            )
            (ls1): Identity()
            (norm2): LayerNorm((2048,), eps=1e-05, elementwise_affine=True)
            (mlp): Mlp(
              (fc1): Linear(in_features=2048, out_features=1024, bias=True)
              (act): GELU(approximate='none')
              (drop1): Dropout(p=0.1, inplace=False)
              (fc2): Linear(in_features=1024, out_features=2048, bias=True)
            )
            (ls2): Identity()
          )
        )
      )
    )
    (norm): LayerNorm((2048,), eps=1e-05, elementwise_affine=True)
    (head): Sequential(
      (0): Linear(in_features=2048, out_features=2048, bias=True)
      (1): GELU(approximate='none')
      (2): Linear(in_features=2048, out_features=2048, bias=True)
      (3): GELU(approximate='none')
      (4): Pred_Rearrange()
      (5): Linear(in_features=2048, out_features=16384, bias=True)
    )
  )
)
len(dict_root_dirs) 1
use_ddstore is : 0
use_ddstore is : 0
len(dict_root_dirs) 1
use_ddstore is : 0
use_ddstore is : 0
len(dict_root_dirs) 1
use_ddstore is : 0
use_ddstore is : 0
len(dict_root_dirs) 1
use_ddstore is : 0
use_ddstore is : 0
len(dict_root_dirs) 1
use_ddstore is : 0
use_ddstore is : 0
len(dict_root_dirs) 1
rank  7 lister_train reset: mpi-esm 9 9 9
…
parameter name  head.0.bias  requires_gradient  True size torch.Size([2048])
parameter name  head.2.weight  requires_gradient  True size torch.Size([2048, 2048])
parameter name  head.2.bias  requires_gradient  True size torch.Size([2048])
parameter name  head.5.weight  requires_gradient  True size torch.Size([16384, 2048])
parameter name  head.5.bias  requires_gradient  True size torch.Size([16384])
total_params before FSDP tensor(1847328768) params_per_gpu tensor(304574464)
total_params after FSDP FullyShardedDataParallel(
  (_fsdp_wrapped_module): ClimaX(
    (token_embeds): ModuleList(
      (0-1023): 1024 x PatchEmbed(
        (proj): Conv2d(1, 2048, kernel_size=(4, 4), stride=(4, 4))
        (norm): Identity()
      )
    )
    (var_agg): FullyShardedDataParallel(
      (_fsdp_wrapped_module): CheckpointWrapper(
        (_checkpoint_wrapped_module): VariableMapping_Attention(
          (q): Linear(in_features=2048, out_features=256, bias=False)
          (kv): Linear(in_features=2048, out_features=512, bias=False)
          (attn_drop): Dropout(p=0.0, inplace=False)
          (proj): Linear(in_features=256, out_features=2048, bias=True)
          (proj_drop): Dropout(p=0.0, inplace=False)
        )
      )
    )
    (var_agg_per_rank): CustomCrossAttention(
      (q): Linear(in_features=2048, out_features=2048, bias=False)
      (kv): Linear(in_features=2048, out_features=4096, bias=False)
      (attn_drop): Dropout(p=0.0, inplace=False)
      (proj): Linear(in_features=2048, out_features=2048, bias=True)
      (proj_drop): Dropout(p=0.0, inplace=False)
    )
    (lead_time_embed): Linear(in_features=1, out_features=2048, bias=True)
    (pos_drop): Dropout(p=0.1, inplace=False)
    (blocks): ModuleList(
      (0-31): 32 x FullyShardedDataParallel(
        (_fsdp_wrapped_module): CheckpointWrapper(
          (_checkpoint_wrapped_module): Block(
            (norm1): LayerNorm((2048,), eps=1e-05, elementwise_affine=True)
            (attn): Attention(
              (qkv): Linear(in_features=2048, out_features=768, bias=True)
              (attn_drop): Dropout(p=0.0, inplace=False)
              (proj): Linear(in_features=256, out_features=2048, bias=True)
              (proj_drop): Dropout(p=0.1, inplace=False)
            )
            (ls1): Identity()
            (norm2): LayerNorm((2048,), eps=1e-05, elementwise_affine=True)
            (mlp): Mlp(
              (fc1): Linear(in_features=2048, out_features=1024, bias=True)
              (act): GELU(approximate='none')
              (drop1): Dropout(p=0.1, inplace=False)
              (fc2): Linear(in_features=1024, out_features=2048, bias=True)
            )
            (ls2): Identity()
          )
        )
      )
    )
    (norm): LayerNorm((2048,), eps=1e-05, elementwise_affine=True)
    (head): Sequential(
      (0): Linear(in_features=2048, out_features=2048, bias=True)
      (1): GELU(approximate='none')
      (2): Linear(in_features=2048, out_features=2048, bias=True)
      (3): GELU(approximate='none')
      (4): Pred_Rearrange()
      (5): Linear(in_features=2048, out_features=16384, bias=True)
    )
  )
)
len(dict_root_dirs) 1
use_ddstore is : 0
use_ddstore is : 0
len(dict_root_dirs) 1
rank  7 lister_train reset: mpi-esm 9 9 9
rank  7 lister_test reset: mpi-esm 9 9 9
use_ddstore is : 0
len(dict_root_dirs) 1
use_ddstore is : 0
use_ddstore is : 0
use_ddstore is : 0
len(dict_root_dirs) 1
use_ddstore is : 0
len(dict_root_dirs) 1
use_ddstore is : 0
…
