…
parameter name  head.0.bias  requires_gradient  True size torch.Size([2048])
parameter name  head.2.weight  requires_gradient  True size torch.Size([2048, 2048])
parameter name  head.2.bias  requires_gradient  True size torch.Size([2048])
parameter name  head.5.weight  requires_gradient  True size torch.Size([8192, 2048])
parameter name  head.5.bias  requires_gradient  True size torch.Size([8192])
total_params before FSDP tensor(1676636459) params_per_gpu tensor(862578987)
total_params after FSDP FullyShardedDataParallel(
  (_fsdp_wrapped_module): ClimaX(
    (token_embeds): ModuleList(
      (0-511): 512 x PatchEmbed(
        (proj): Conv2d(1, 2048, kernel_size=(4, 4), stride=(4, 4))
        (norm): Identity()
      )
    )
    (var_agg): FullyShardedDataParallel(
      (_fsdp_wrapped_module): CheckpointWrapper(
        (_checkpoint_wrapped_module): VariableMapping_Attention(
          (q): Linear(in_features=2048, out_features=1024, bias=False)
          (kv): Linear(in_features=2048, out_features=2048, bias=False)
          (attn_drop): Dropout(p=0.0, inplace=False)
          (proj): Linear(in_features=1024, out_features=2048, bias=True)
          (proj_drop): Dropout(p=0.0, inplace=False)
        )
      )
    )
    (var_linear_per_rank): Linear(in_features=256, out_features=1, bias=True)
    (var_linear_per_rank2): Linear(in_features=32, out_features=1, bias=True)
    (var_linear_per_rank3): Linear(in_features=8, out_features=1, bias=True)
    (lead_time_embed): Linear(in_features=1, out_features=2048, bias=True)
    (pos_drop): Dropout(p=0.1, inplace=False)
    (blocks): ModuleList(
      (0-31): 32 x FullyShardedDataParallel(
        (_fsdp_wrapped_module): CheckpointWrapper(
          (_checkpoint_wrapped_module): Block(
            (norm1): LayerNorm((2048,), eps=1e-05, elementwise_affine=True)
            (attn): Attention(
              (qkv): Linear(in_features=2048, out_features=3072, bias=True)
              (attn_drop): Dropout(p=0.0, inplace=False)
              (proj): Linear(in_features=1024, out_features=2048, bias=True)
              (proj_drop): Dropout(p=0.1, inplace=False)
            )
            (ls1): Identity()
            (norm2): LayerNorm((2048,), eps=1e-05, elementwise_affine=True)
            (mlp): Mlp(
              (fc1): Linear(in_features=2048, out_features=4096, bias=True)
              (act): GELU(approximate='none')
              (drop1): Dropout(p=0.1, inplace=False)
              (fc2): Linear(in_features=4096, out_features=2048, bias=True)
            )
            (ls2): Identity()
          )
        )
      )
    )
    (norm): LayerNorm((2048,), eps=1e-05, elementwise_affine=True)
    (head): Sequential(
      (0): Linear(in_features=2048, out_features=2048, bias=True)
      (1): GELU(approximate='none')
      (2): Linear(in_features=2048, out_features=2048, bias=True)
      (3): GELU(approximate='none')
      (4): Pred_Rearrange()
      (5): Linear(in_features=2048, out_features=8192, bias=True)
    )
  )
)
len(dict_root_dirs) 1
rank  1 lister_train reset: mpi-esm 9 9 9
rank  1 lister_test reset: mpi-esm 9 9 9
use_ddstore is : 0
use_ddstore is : 0
len(dict_root_dirs) 1
rank  0 lister_train reset: mpi-esm 9 9 9
rank  0 lister_test reset: mpi-esm 9 9 9
use_ddstore is : 0
use_ddstore is : 0
/lustre/orion/world-shared/stf218/atsaris/DEEPCAM_2022
…
parameter name  head.0.bias  requires_gradient  True size torch.Size([2048])
parameter name  head.2.weight  requires_gradient  True size torch.Size([2048, 2048])
parameter name  head.2.bias  requires_gradient  True size torch.Size([2048])
parameter name  head.5.weight  requires_gradient  True size torch.Size([8192, 2048])
parameter name  head.5.bias  requires_gradient  True size torch.Size([8192])
total_params before FSDP tensor(1710194688) params_per_gpu tensor(879357952)
total_params after FSDP FullyShardedDataParallel(
  (_fsdp_wrapped_module): ClimaX(
    (token_embeds): ModuleList(
      (0-511): 512 x PatchEmbed(
        (proj): Conv2d(1, 2048, kernel_size=(4, 4), stride=(4, 4))
        (norm): Identity()
      )
    )
    (var_agg): FullyShardedDataParallel(
      (_fsdp_wrapped_module): CheckpointWrapper(
        (_checkpoint_wrapped_module): VariableMapping_Attention(
          (q): Linear(in_features=2048, out_features=1024, bias=False)
          (kv): Linear(in_features=2048, out_features=2048, bias=False)
          (attn_drop): Dropout(p=0.0, inplace=False)
          (proj): Linear(in_features=1024, out_features=2048, bias=True)
          (proj_drop): Dropout(p=0.0, inplace=False)
        )
      )
    )
    (var_agg_per_rank): CustomCrossAttention(
      (q): Linear(in_features=2048, out_features=2048, bias=False)
      (kv): Linear(in_features=2048, out_features=4096, bias=False)
      (attn_drop): Dropout(p=0.0, inplace=False)
      (proj): Linear(in_features=2048, out_features=2048, bias=True)
      (proj_drop): Dropout(p=0.0, inplace=False)
    )
    (lead_time_embed): Linear(in_features=1, out_features=2048, bias=True)
    (pos_drop): Dropout(p=0.1, inplace=False)
    (blocks): ModuleList(
      (0-31): 32 x FullyShardedDataParallel(
        (_fsdp_wrapped_module): CheckpointWrapper(
          (_checkpoint_wrapped_module): Block(
            (norm1): LayerNorm((2048,), eps=1e-05, elementwise_affine=True)
            (attn): Attention(
              (qkv): Linear(in_features=2048, out_features=3072, bias=True)
              (attn_drop): Dropout(p=0.0, inplace=False)
              (proj): Linear(in_features=1024, out_features=2048, bias=True)
              (proj_drop): Dropout(p=0.1, inplace=False)
            )
            (ls1): Identity()
            (norm2): LayerNorm((2048,), eps=1e-05, elementwise_affine=True)
            (mlp): Mlp(
              (fc1): Linear(in_features=2048, out_features=4096, bias=True)
              (act): GELU(approximate='none')
              (drop1): Dropout(p=0.1, inplace=False)
              (fc2): Linear(in_features=4096, out_features=2048, bias=True)
            )
            (ls2): Identity()
          )
        )
      )
    )
    (norm): LayerNorm((2048,), eps=1e-05, elementwise_affine=True)
    (head): Sequential(
      (0): Linear(in_features=2048, out_features=2048, bias=True)
      (1): GELU(approximate='none')
      (2): Linear(in_features=2048, out_features=2048, bias=True)
      (3): GELU(approximate='none')
      (4): Pred_Rearrange()
      (5): Linear(in_features=2048, out_features=8192, bias=True)
    )
  )
)
len(dict_root_dirs) 1
rank  1 lister_train reset: mpi-esm 9 9 9
rank  1 lister_test reset: mpi-esm 9 9 9
use_ddstore is : 0
use_ddstore is : 0
len(dict_root_dirs) 1
rank  0 lister_train reset: mpi-esm 9 9 9
rank  0 lister_test reset: mpi-esm 9 9 9
use_ddstore is : 0
use_ddstore is : 0
/lustre/orion/world-shared/stf218/atsaris/DEEPCAM_2022
…
parameter name  head.0.bias  requires_gradient  True size torch.Size([2048])
parameter name  head.2.weight  requires_gradient  True size torch.Size([2048, 2048])
parameter name  head.2.bias  requires_gradient  True size torch.Size([2048])
parameter name  head.5.weight  requires_gradient  True size torch.Size([8192, 2048])
parameter name  head.5.bias  requires_gradient  True size torch.Size([8192])
total_params before FSDP tensor(1676634112) params_per_gpu tensor(862576640)
total_params after FSDP FullyShardedDataParallel(
  (_fsdp_wrapped_module): ClimaX(
    (token_embeds): ModuleList(
      (0-511): 512 x PatchEmbed(
        (proj): Conv2d(1, 2048, kernel_size=(4, 4), stride=(4, 4))
        (norm): Identity()
      )
    )
    (var_agg): FullyShardedDataParallel(
      (_fsdp_wrapped_module): CheckpointWrapper(
        (_checkpoint_wrapped_module): VariableMapping_Attention(
          (q): Linear(in_features=2048, out_features=1024, bias=False)
          (kv): Linear(in_features=2048, out_features=2048, bias=False)
          (attn_drop): Dropout(p=0.0, inplace=False)
          (proj): Linear(in_features=1024, out_features=2048, bias=True)
          (proj_drop): Dropout(p=0.0, inplace=False)
        )
      )
    )
    (lead_time_embed): Linear(in_features=1, out_features=2048, bias=True)
    (pos_drop): Dropout(p=0.1, inplace=False)
    (blocks): ModuleList(
      (0-31): 32 x FullyShardedDataParallel(
        (_fsdp_wrapped_module): CheckpointWrapper(
          (_checkpoint_wrapped_module): Block(
            (norm1): LayerNorm((2048,), eps=1e-05, elementwise_affine=True)
            (attn): Attention(
              (qkv): Linear(in_features=2048, out_features=3072, bias=True)
              (attn_drop): Dropout(p=0.0, inplace=False)
              (proj): Linear(in_features=1024, out_features=2048, bias=True)
              (proj_drop): Dropout(p=0.1, inplace=False)
            )
            (ls1): Identity()
            (norm2): LayerNorm((2048,), eps=1e-05, elementwise_affine=True)
            (mlp): Mlp(
              (fc1): Linear(in_features=2048, out_features=4096, bias=True)
              (act): GELU(approximate='none')
              (drop1): Dropout(p=0.1, inplace=False)
              (fc2): Linear(in_features=4096, out_features=2048, bias=True)
            )
            (ls2): Identity()
          )
        )
      )
    )
    (norm): LayerNorm((2048,), eps=1e-05, elementwise_affine=True)
    (head): Sequential(
      (0): Linear(in_features=2048, out_features=2048, bias=True)
      (1): GELU(approximate='none')
      (2): Linear(in_features=2048, out_features=2048, bias=True)
      (3): GELU(approximate='none')
      (4): Pred_Rearrange()
      (5): Linear(in_features=2048, out_features=8192, bias=True)
    )
  )
)
len(dict_root_dirs) 1
rank  1 lister_train reset: mpi-esm 9 9 9
rank  1 lister_test reset: mpi-esm 9 9 9
use_ddstore is : 0
len(dict_root_dirs) 1
rank  0 lister_train reset: mpi-esm 9 9 9
rank  0 lister_test reset: mpi-esm 9 9 9
use_ddstore is : 0
use_ddstore is : 0
use_ddstore is : 0
/lustre/orion/world-shared/stf218/atsaris/DEEPCAM_2022
…
parameter name  head.0.bias  requires_gradient  True size torch.Size([2048])
parameter name  head.2.weight  requires_gradient  True size torch.Size([2048, 2048])
parameter name  head.2.bias  requires_gradient  True size torch.Size([2048])
parameter name  head.5.weight  requires_gradient  True size torch.Size([8192, 2048])
parameter name  head.5.bias  requires_gradient  True size torch.Size([8192])
total_params before FSDP tensor(1676636417) params_per_gpu tensor(862578945)
total_params after FSDP FullyShardedDataParallel(
  (_fsdp_wrapped_module): ClimaX(
    (token_embeds): ModuleList(
      (0-511): 512 x PatchEmbed(
        (proj): Conv2d(1, 2048, kernel_size=(4, 4), stride=(4, 4))
        (norm): Identity()
      )
    )
    (var_agg): FullyShardedDataParallel(
      (_fsdp_wrapped_module): CheckpointWrapper(
        (_checkpoint_wrapped_module): VariableMapping_Attention(
          (q): Linear(in_features=2048, out_features=1024, bias=False)
          (kv): Linear(in_features=2048, out_features=2048, bias=False)
          (attn_drop): Dropout(p=0.0, inplace=False)
          (proj): Linear(in_features=1024, out_features=2048, bias=True)
          (proj_drop): Dropout(p=0.0, inplace=False)
        )
      )
    )
    (var_linear_per_rank): Linear(in_features=256, out_features=1, bias=True)
    (lead_time_embed): Linear(in_features=1, out_features=2048, bias=True)
    (pos_drop): Dropout(p=0.1, inplace=False)
    (blocks): ModuleList(
      (0-31): 32 x FullyShardedDataParallel(
        (_fsdp_wrapped_module): CheckpointWrapper(
          (_checkpoint_wrapped_module): Block(
            (norm1): LayerNorm((2048,), eps=1e-05, elementwise_affine=True)
            (attn): Attention(
              (qkv): Linear(in_features=2048, out_features=3072, bias=True)
              (attn_drop): Dropout(p=0.0, inplace=False)
              (proj): Linear(in_features=1024, out_features=2048, bias=True)
              (proj_drop): Dropout(p=0.1, inplace=False)
            )
            (ls1): Identity()
            (norm2): LayerNorm((2048,), eps=1e-05, elementwise_affine=True)
            (mlp): Mlp(
              (fc1): Linear(in_features=2048, out_features=4096, bias=True)
              (act): GELU(approximate='none')
              (drop1): Dropout(p=0.1, inplace=False)
              (fc2): Linear(in_features=4096, out_features=2048, bias=True)
            )
            (ls2): Identity()
          )
        )
      )
    )
    (norm): LayerNorm((2048,), eps=1e-05, elementwise_affine=True)
    (head): Sequential(
      (0): Linear(in_features=2048, out_features=2048, bias=True)
      (1): GELU(approximate='none')
      (2): Linear(in_features=2048, out_features=2048, bias=True)
      (3): GELU(approximate='none')
      (4): Pred_Rearrange()
      (5): Linear(in_features=2048, out_features=8192, bias=True)
    )
  )
)
len(dict_root_dirs) 1
rank  1 lister_train reset: mpi-esm 9 9 9
rank  1 lister_test reset: mpi-esm 9 9 9
use_ddstore is : 0
use_ddstore is : 0
len(dict_root_dirs) 1
rank  0 lister_train reset: mpi-esm 9 9 9
rank  0 lister_test reset: mpi-esm 9 9 9
use_ddstore is : 0
use_ddstore is : 0
/lustre/orion/world-shared/stf218/atsaris/DEEPCAM_2022
…
